resources/testing/lsp_xai_maze_4SG.ExpNavVisLSP.pt (torch, 484272 bytes, 113 tensors)

enc_1.cnn_layers.0.weight f4 [16, 3, 3, 3]
0	0x3cfd2951	0.03090349
1	0x3d6ef86c	0.058342382
2	0xbe0e3421	-0.13887073
3	0xbe54c968	-0.20779955
4	0xbe59e6ae	-0.21279404
5	0x3c1c0db9	0.009524756
6	0x3d190007	0.03735354
7	0xbea4785f	-0.32123086
8	0xbe17e6f5	-0.14834197
9	0xbe68f444	-0.2274943
10	0xbdb9bcb0	-0.090691924
11	0xbe1b7ab9	-0.15183534
12	0xbe77571e	-0.24154326
13	0xbe836138	-0.2566011
14	0xbe708873	-0.23489551
15	0xbe7bfddd	-0.2460856
16	0xbde666a2	-0.112500444
17	0x3d765876	0.060142957
18	0xbd90228f	-0.070378415
19	0xbd50e786	-0.051002048
20	0x3ccacdec	0.024756394
21	0x3d26c50e	0.04071527
22	0xbe1b4312	-0.15162304
23	0xbe069d12	-0.13145855
24	0x3d8c3f94	0.06848064
25	0x3dd45aff	0.10368919
26	0xbb925538	-0.0044657253
27	0xbe8af9fc	-0.27143848
28	0x3d75693b	0.05991481
29	0xbdbbec90	-0.0917598
30	0xbd25304c	-0.040329263
31	0x3c9aae00	0.018881798
32	0xbe2aca6c	-0.1667878
33	0xbe8e4f9f	-0.2779512
34	0xbdbc3549	-0.09189851
35	0xbe22d528	-0.15901625
36	0x3c95d273	0.018288827
37	0xbe102b7e	-0.14079091
38	0xbd26d53e	-0.040730707
39	0xbda07fcd	-0.07836876
40	0xbe5eaae8	-0.21744883
41	0xbe6ada2f	-0.22934793
42	0xbdb3282c	-0.087478966
43	0x3de21c05	0.110405006
44	0xbe015589	-0.12630285
45	0xbd38f7d3	-0.04515822
46	0x3d7e2195	0.062043745
47	0xbe10dd2c	-0.1414687
48	0xbd819dca	-0.06328924
49	0xbd998ae3	-0.07497194
50	0x3c8482be	0.016175624
51	0x3b519481	0.0031979384
52	0xbdb83601	-0.089946754
53	0x3d8a97c3	0.067672275
54	0xbc55c84d	-0.013048244
55	0x3e059921	0.13046695
56	0xbe2387c4	-0.15969759
57	0xbe390189	-0.18066992
58	0x3bd0e664	0.006375121
59	0xbe3c7d61	-0.18407203
60	0x3de8ac5e	0.113610014
61	0x3d9bced8	0.07607812
62	0xbe0bd4ef	-0.13655446
63	0xbc2b23f5	-0.010445585
64	0x3cf143f1	0.029451342
65	0xbe33d57d	-0.17561908
66	0xbdb463d6	-0.08808105
67	0xbde4ecba	-0.111779645
68	0x3c19848a	0.009369979
69	0xbe273175	-0.1632746
70	0xbe62ff4a	-0.22167698
71	0xbe216fb8	-0.15765274
72	0x3e94f45f	0.2909269
73	0x3ef774a8	0.4833119
74	0x3ed29c88	0.4113505
75	0x3e594677	0.21218286
76	0x3e1dd0be	0.1541166
77	0x3e349e70	0.17638564
78	0x3dec3cc5	0.11535028
79	0x3ee8fdf5	0.45506254
80	0x3eac815b	0.3369244
81	0xbec4fba4	-0.38473237
82	0xbe6f7f6f	-0.23388456
83	0xbe49e62c	-0.1971671
84	0xbe440424	-0.19142205
85	0xbe24e3b6	-0.1610249
86	0xbde2fcd4	-0.110833794
87	0xbe28ca0c	-0.16483325
88	0xbdaebe11	-0.08532346
89	0xbe832af3	-0.25618705
90	0xbf027215	-0.50955325
91	0xbe59b4ce	-0.21260378
92	0xbe7efce4	-0.24901158
93	0xbebe1f12	-0.3713308
94	0xbd2e75f7	-0.04259297
95	0xbd5c126d	-0.05372851
96	0xbe80e5f0	-0.25175428
97	0xbeced178	-0.40394187
98	0xbea6e07c	-0.32593143
99	0xbdc1e7d4	-0.09468046
100	0xbe0d5478	-0.13801754
101	0xbe6dfeb7	-0.23241697
102	0xbe06a154	-0.1314748
103	0x3d87be8f	0.06628143
104	0xbe135991	-0.14389636
105	0xbe413b3e	-0.18870255
106	0xbe5d2921	-0.2159772
107	0xbe82c491	-0.25540593
108	0xbe12d9cf	-0.143409
109	0xbdb36b5e	-0.08760713
110	0xbdbf20be	-0.09332417
111	0xbe553eb0	-0.20824695
112	0x3db4f783	0.088362716
113	0xbe40beb5	-0.18822749
114	0xbe94991f	-0.29023072
115	0xbde851e0	-0.113437414
116	0x3bfcbac0	0.007712692
117	0xbe8fa252	-0.28053528
118	0x3d82dd94	0.06389919
119	0x3d33b8ac	0.04387729
120	0xbe770951	-0.24124648
121	0xbe2721ab	-0.16321437
122	0x3c5b7a5f	0.013395875
123	0xbe16e512	-0.14735821
124	0xbe2e50b0	-0.17022967
125	0xbd8c3978	-0.06846899
126	0x3da0cf21	0.07852007
127	0xbde13743	-0.109968685
128	0xbb561eb9	-0.003267212
129	0x3c9c1eaf	0.0190576
130	0xbe400aae	-0.18754074
131	0x3dfde852	0.12397827
132	0xbd7523c0	-0.059848547
133	0xbdee0fb7	-0.11624091
134	0xbe1e8ce7	-0.15483437
135	0xbeae5b46	-0.3405401
136	0xbe2425b9	-0.16030015
137	0xbd01750f	-0.031605776
138	0xbdd7c915	-0.105364
139	0xbe93bbd9	-0.28854254
140	0xbdc3ce05	-0.095607795
141	0xbe483101	-0.19549944
142	0xbec0c8d7	-0.3765323
143	0xbe1d7197	-0.15375362
144	0xbe13e2d9	-0.14442004
145	0xbe5741e6	-0.21021232
146	0xbdb8ea7b	-0.090290986
147	0xbbd413f0	-0.0064721033
148	0xbe80583e	-0.25067323
149	0xbe38cbb6	-0.1804646
150	0xbde8e720	-0.113722086
151	0xbe9385d2	-0.28813034
152	0xbde57d84	-0.11205581
153	0xbee5ab9d	-0.44857493
154	0xbee51d02	-0.44748694
155	0xbea89051	-0.32922605
156	0xbe967a41	-0.29390147
157	0xbeb25deb	-0.3483728
158	0xbebd15fb	-0.36930832
159	0xbe69225b	-0.22767012
160	0xbe81e5f4	-0.25370753
161	0xbdf06abf	-0.1173911
162	0xbe12dd2d	-0.14342184
163	0xbe2e2add	-0.17008539
164	0xbe7b86b9	-0.24563111
165	0xbb2c1f37	-0.0026263723
166	0xbe6ed41c	-0.23323101
167	0xbe6172df	-0.22016476
168	0xbe6c6890	-0.23086762
169	0xbedc4d26	-0.4302761
170	0xbe6ab677	-0.22921167
171	0xbe6b4041	-0.2297373
172	0xbe112392	-0.14173725
173	0xbe08ac1b	-0.13346903
174	0xbe971848	-0.29510713
175	0xbd8fa574	-0.070139796
176	0xbdc6a223	-0.09698894
177	0xbe0ba00b	-0.1363527
178	0xbe3f4849	-0.18679918
179	0xbe5fbe56	-0.21849951
180	0xbe934df4	-0.2877041
181	0xbe93db29	-0.28878143
182	0xbe2c0fb9	-0.16802873
183	0xbecdc7ce	-0.401915
184	0xbe8e3564	-0.2777511
185	0xbe970460	-0.29495525
186	0xbef65071	-0.48108247
187	0xbe859961	-0.2609358
188	0xbee4724c	-0.44618452
189	0x3e2edb4e	0.17075846
190	0x3e2ebd2e	0.17064354
191	0x3dedf86e	0.1161965
192	0x3e33db30	0.17564082
193	0xbd32bf5a	-0.04363952
194	0x3e617f9f	0.2202134
195	0xbb89c272	-0.004204088
196	0xbe20eb4e	-0.15714762
197	0x3dcc982c	0.09989962
198	0xbe8528b4	-0.26007617
199	0xbe05ee9f	-0.13079308
200	0xbdcda57a	-0.10041328
201	0xbca511cc	-0.020150088
202	0xbe792d14	-0.24333602
203	0x3d7e255c	0.062047347
204	0xbe9f191a	-0.31073838
205	0xbdbf7112	-0.09347738
206	0xbcdfb975	-0.027310112
207	0xbe9ffbaa	-0.31246692
208	0xbe14ab5f	-0.14518498
209	0xbea3f3ae	-0.3202185
210	0xbe1f3b49	-0.15549959
211	0xbdd4e8e9	-0.103959866
212	0xbe97f4fc	-0.29679096
213	0x3cecafd6	0.028892439
214	0xbe0ef87d	-0.13961978
215	0xbdd52b00	-0.10408592
216	0xbe3ef7e9	-0.18649258
217	0xbe66b403	-0.22529607
218	0xbe2f2a1d	-0.17105909
219	0xbe98ced1	-0.29845288
220	0xbe0c5496	-0.13704142
221	0xbd13aa9d	-0.03605138
222	0xbd5010ef	-0.0507974
223	0xba4ed389	-0.00078897976
224	0xbe58c128	-0.21167433
225	0xbe223c46	-0.15843305
226	0xbe413008	-0.18865979
227	0xbd369be3	-0.04458226
228	0xbe3432f5	-0.17597564
229	0x3de8c9fa	0.11366649
230	0xbe671207	-0.2256547
231	0xbdc52a8f	-0.09627258
232	0xbe1437c5	-0.144744
233	0xbdd3d371	-0.103430636
234	0xbe503683	-0.20333295
235	0xbe20fdb8	-0.15721786
236	0xbe1f6f16	-0.1556972
237	0x3df27dbd	0.11840389
238	0x3ce24630	0.027621359
239	0x3e22e1a4	0.15906388
240	0x3dd4a55b	0.103831016
241	0xbcbe5a7d	-0.023236508
242	0xbd2e9402	-0.04262162
243	0x3e34b181	0.17645837
244	0x3e2ff3b3	0.17182808
245	0x3ed9a99a	0.42512208
246	0x3d716c54	0.0589412
247	0x3e79f14f	0.24408458
248	0x3de441e1	0.11145378
249	0x3ea9e3f1	0.33181718
250	0x3ead538b	0.338528
251	0x3d81944c	0.063271135
252	0x3e110d65	0.14165266
253	0x3e5200dc	0.2050814
254	0xbdd685cd	-0.10474739
255	0x3db4892a	0.088152245

enc_1.cnn_layers.1.weight f4 [16]
0	0x3f5ead1f	0.8698291
1	0x3f5e6c7c	0.86884284
2	0x3f96260d	1.1730362
3	0x3f8b40f6	1.08792
4	0x3f758aba	0.95914805
5	0x3f5b2a78	0.8561168
6	0x3fb058eb	1.3777136
7	0x3f93ba7f	1.1541289
8	0x3f823ab8	1.017417
9	0x3f93f524	1.1559186
10	0x3f36c7f0	0.7139883
11	0x3f3e1996	0.7425779
12	0x3fa3ff8d	1.2812363
13	0x3f85140c	1.0396743
14	0x3f15e5f3	0.58554
15	0x3f84310e	1.032747

enc_1.cnn_layers.1.bias f4 [16]
0	0xbd05fe04	-0.03271295
1	0x3ce24b61	0.027623834
2	0x3dd909ef	0.10597598
3	0x3c3e9494	0.0116321035
4	0x3d6e5ff1	0.058196966
5	0x3e717b09	0.2358209
6	0x3dd5e51a	0.10444088
7	0x3d9008f5	0.070329584
8	0x3cdb2ae3	0.026753848
9	0x3e12ea14	0.14347106
10	0x3e5d2caf	0.21599077
11	0x3d1dd159	0.038529728
12	0x3e8d07ef	0.27545115
13	0x3d122f9f	0.035689946
14	0xbc87d8d7	-0.01658289
15	0x3e17c053	0.1481946

enc_1.cnn_layers.1.running_mean f4 [16]
0	0xbf61c75c	-0.88194823
1	0xbf32ee99	-0.6989532
2	0x3ecf21e1	0.40455535
3	0xbfeec9df	-1.8655356
4	0xbf4ddb96	-0.80413187
5	0xbffba9e4	-1.9661222
6	0xc005277f	-2.0805357
7	0xbf26127d	-0.6487196
8	0xbf58d82b	-0.84704846
9	0x3ee0c0bd	0.43897048
10	0x3f52c18b	0.82326573
11	0xc02e4ef0	-2.723568
12	0x3e5b27aa	0.2140185
13	0xbfd6b00d	-1.6772476
14	0x3f847496	1.0348079
15	0xbfb6c7ff	-1.4279784

enc_1.cnn_layers.1.running_var f4 [16]
0	0x3e4d3ad2	0.2004197
1	0x3debc96a	0.11513026
2	0x3d51668c	0.051123187
3	0x3f573e4b	0.84079427
4	0x3e1e20ef	0.1544225
5	0x3f61e131	0.8823424
6	0x3f7bf610	0.98422337
7	0x3de96b84	0.1139746
8	0x3e31ac9f	0.17351006
9	0x3d2e2cdb	0.042523246
10	0x3e390395	0.18067773
11	0x3fde560d	1.7370011
12	0x3dd95b60	0.106131315
13	0x3f1e691d	0.6187914
14	0x3e97a6a9	0.2961934
15	0x3ee4a6a9	0.44658402

enc_1.cnn_layers.3.weight f4 [16, 16, 3, 3]
0	0x3e07d4c0	0.13264751
1	0x3e1b566d	0.15169688
2	0x3cbb9a9d	0.022900874
3	0x3d2f4458	0.042789787
4	0x3e0b490a	0.13602081
5	0x3dc81a1f	0.09770607
6	0x3d398afe	0.04529857
7	0x3dd948ef	0.10609614
8	0x3d6a2eee	0.057173662
9	0x3d4b8ecd	0.049696732
10	0x3e1a367a	0.15059844
11	0x3df321da	0.11871691
12	0x3ddd4bf1	0.108055
13	0x3e1e9bb2	0.1548908
14	0x3e2d7e67	0.1694275
15	0x3e09294a	0.13394657
16	0x3db62c8d	0.08895216
17	0x3e1d41d1	0.15357138
18	0x3da52f13	0.08065619
19	0x3d086111	0.033295695
20	0x3d9bd2b6	0.07608549
21	0x3dff3656	0.12461536
22	0x3db9fd3a	0.09081502
23	0x3dd7894e	0.10524236
24	0x3e3b2674	0.18276387
25	0x3d17808c	0.036987826
26	0x3db32fda	0.08749361
27	0x3dd48fd9	0.10378999
28	0x3db22196	0.08697812
29	0x3e660e16	0.22466311
30	0x3dfc39bd	0.123157
31	0x3d8be2bb	0.06830355
32	0x3df91b43	0.12163403
33	0x3d9263fe	0.07147978
34	0x3d36f9fe	0.044672005
35	0x3bf9f040	0.007627517
36	0x3e3070d5	0.17230542
37	0x3dec2d4c	0.11532077
38	0x3d9005a4	0.07032326
39	0x3de7b2f2	0.11313428
40	0x3d8f124d	0.069859125
41	0x3e135948	0.14389527
42	0x3de22953	0.11043038
43	0x3d892b8b	0.06697758
44	0x3e177fc9	0.1479484
45	0xbc87e10e	-0.016586807
46	0x3d402101	0.046906475
47	0x3d12f96e	0.035882406
48	0xbd887561	-0.06663013
49	0x3d462a5b	0.048380237
50	0x3d2eb14b	0.04264955
51	0x3d4ab2be	0.049486868
52	0x3cf4c65c	0.029879741
53	0xbd783c2d	-0.060604263
54	0x3e9db224	0.30799973
55	0x3e72030d	0.23633976
56	0x3e811c56	0.2521693
57	0x3e796773	0.24355869
58	0x3e21d336	0.15803227
59	0x3e02108b	0.12701623
60	0x3e803e57	0.25047562
61	0x3e5e5a62	0.21714166
62	0x3e85cf1d	0.26134577
63	0x3e0e47b8	0.13894546
64	0x3e02535c	0.12727112
65	0x3e159a67	0.14609681
66	0x3e1d762d	0.15377112
67	0x3c7a748c	0.015286576
68	0x3b0326cb	0.0020012136
69	0x3e1442ed	0.14478655
70	0x3dc124cb	0.09430846
71	0x3d16575b	0.036704402
72	0x3e34bc66	0.17649993
73	0x3e116b3f	0.14201067
74	0x3e0e6082	0.13904002
75	0x3e065d5d	0.13121553
76	0x3bb1e89c	0.0054293405
77	0x3e03ae05	0.12859352
78	0x3e2f4f40	0.17120075
79	0x3d4b2edf	0.049605247
80	0xbbaf2d2f	-0.0053459625
81	0x3e2f1cec	0.17100877
82	0x3dbb158f	0.09134971
83	0x3d3d45c1	0.0462091
84	0x3e0fb870	0.14035201
85	0x3caf62fe	0.021409508
86	0x3db09930	0.08622968
87	0x3e1901f1	0.14942147
88	0x3dd7bd5b	0.105341636
89	0x3d16fbd2	0.03686125
90	0xbe336215	-0.17517884
91	0x3d97d63f	0.07413911
92	0xbd8c7229	-0.06857712
93	0x3d61a15f	0.055085536
94	0x3e232694	0.15932685
95	0xbd50d6d9	-0.050986145
96	0x3d209a66	0.039209746
97	0x3d06ecaf	0.032940563
98	0xbc7cd22c	-0.015430968
99	0x3cf8f8b4	0.030392028
100	0xbb2f2487	-0.0026724653
101	0xbd444968	-0.04792157
102	0x3c8dc905	0.017307768
103	0x3bef984d	0.007311857
104	0xbdc07f06	-0.09399228
105	0x3e07c3a2	0.13258222
106	0x3d1f7dfd	0.03893851
107	0x3cf31d5e	0.02967709
108	0xbe1a4ad6	-0.1506761
109	0xbdbc8a10	-0.09206021
110	0xbe11ea70	-0.14249587
111	0xbddde4ba	-0.10834642
112	0xbd9c77a8	-0.0764001
113	0xbe312ffb	-0.1730346
114	0xbde77a20	-0.1130259
115	0xbd942533	-0.07233658
116	0xbe34c7c3	-0.17654328
117	0x3e4d2831	0.20034863
118	0x3e3b264a	0.18276325
119	0x3e09e921	0.13467838
120	0x3d728198	0.05920562
121	0x3e1ab677	0.15108667
122	0x3d261cfe	0.040554993
123	0x3db17cf7	0.08666413
124	0x3dab2923	0.083574556
125	0x3da674c9	0.08127744
126	0xbe279a59	-0.16367473
127	0xbe50760a	-0.20357528
128	0xbdc6d58c	-0.097086996
129	0xbe39318a	-0.18085304
130	0xbe44c145	-0.19214351
131	0xbdb60813	-0.08888259
132	0xbe18c673	-0.14919452
133	0xbe378918	-0.17923391
134	0xbe000bd8	-0.12504518
135	0x3e3a24b9	0.18178071
136	0x3e07e463	0.13270716
137	0x3e3aad51	0.18230177
138	0x3d1536bf	0.036429163
139	0x3dda6de8	0.10665494
140	0x3d226d77	0.039655175
141	0x3e21b47d	0.15791507
142	0x3e027110	0.12738442
143	0x3d899200	0.067173004
144	0x3e5d0d96	0.21587214
145	0x3df4a733	0.11945953
146	0x3db58113	0.088625096
147	0x3d9fd4e2	0.07804276
148	0x3da18c95	0.07888142
149	0x3e543602	0.20723727
150	0x3e5cff7b	0.21581833
151	0x3e4a2df5	0.19744094
152	0x3e091574	0.1338709
153	0x3e53e227	0.20691739
154	0x3e1cbe68	0.15307009
155	0x3e20992c	0.1568343
156	0x3dc61373	0.096716784
157	0x3e5453cd	0.20735092
158	0x3dced641	0.100994594
159	0x3e6a7381	0.22895624
160	0x3e1272be	0.14301583
161	0x3e24fd9e	0.16112372
162	0x3e7bdaf0	0.24595237
163	0x3e4b0092	0.19824436
164	0x3e788ca6	0.24272403
165	0x3e1cbedc	0.15307182
166	0x3e203c0d	0.15647908
167	0x3e574ec8	0.21026146
168	0x3e80a772	0.2512775
169	0x3e87fe88	0.2656138
170	0x3e10bd99	0.14134826
171	0x3df02826	0.11726408
172	0x3e436d9e	0.19084784
173	0x3e1d995b	0.15390532
174	0x3dfee4e7	0.124460034
175	0x3e58c5c5	0.21169193
176	0x3e3325cc	0.17494887
177	0x3e6aaee7	0.22918282
178	0x3e26204c	0.16223258
179	0x3d2cde37	0.042204108
180	0x3e2cdcf7	0.16881166
181	0x3e0e58a2	0.13900998
182	0x3e32faa1	0.1747842
183	0x3e70ea25	0.23526819
184	0x3e2c280b	0.1681215
185	0x3de7e0c5	0.11322168
186	0x3e0b68ec	0.13614243
187	0x3e0ee688	0.13955128
188	0x3def3bc4	0.11681321
189	0x3b88f2af	0.0041793208
190	0x3e183d53	0.14867143
191	0x3d54bf50	0.051940262
192	0x3e32222f	0.17395853
193	0x3ddc747b	0.107644044
194	0x3db50d24	0.08840397
195	0x3da6f78c	0.081526846
196	0x3db678ae	0.089097366
197	0x3d3ed987	0.04659417
198	0x3da18cfc	0.07888219
199	0x3df4f72c	0.11961207
200	0x3d8d8a33	0.06911125
201	0x3e1e6ea7	0.15471898
202	0x3deaca80	0.11464405
203	0x3dd17ef5	0.10229293
204	0x3e2e121a	0.16999093
205	0x3d78b446	0.060718797
206	0x3d156485	0.036472816
207	0x3e0a81ad	0.1352603
208	0x3e04a3d0	0.12953115
209	0x3de7855f	0.113047354
210	0x3e17ab97	0.1481155
211	0x3d33b138	0.04387018
212	0x3e010a86	0.1260167
213	0x3e28a8b9	0.16470613
214	0x3e2933d5	0.16523679
215	0x3d95644a	0.07294519
216	0x3e82c590	0.25541353
217	0x3de188ab	0.110123955
218	0x3dc60338	0.09668583
219	0x3dfaeab5	0.12251798
220	0x3e2b92b5	0.16755183
221	0x3daa963c	0.08329436
222	0x3e1bd268	0.15216982
223	0x3e6c1ebc	0.23058599
224	0x3e4e9a9a	0.20176163
225	0x3e6f5fb7	0.23376356
226	0x3e89a3e0	0.2688284
227	0x3e4ff47c	0.20308107
228	0x3e57d7db	0.21078436
229	0x3e443f48	0.19164765
230	0x3e6146b9	0.21999635
231	0x3e84e9db	0.25959668
232	0x3e4ae4b3	0.19813804
233	0x3e75a7f2	0.23989847
234	0xbdda0c1b	-0.1064684
235	0xbdc39597	-0.095500164
236	0xbc83ed1d	-0.016104275
237	0xbdf5145e	-0.11966775
238	0xbda07ab6	-0.07835905
239	0xbcc72d11	-0.024313482
240	0xbd97937f	-0.074011795
241	0xbdfb3e5b	-0.12267753
242	0x3d5e1e73	0.054228257
243	0x3cc649f8	0.024205193
244	0x3c4ac7dd	0.012376753
245	0x3dd4f492	0.103982106
246	0x3e074c57	0.13212715
247	0x3dc1506b	0.09439167
248	0x3d54031d	0.05176078
249	0x3de65e7f	0.112484924
250	0x3dc3c090	0.09558213
251	0x3d2cab41	0.042155508
252	0x3cd13897	0.02553968
253	0x3c8050fd	0.015663618
254	0xbd2b679c	-0.041846856
255	0xbd2bf18e	-0.04197841

enc_1.cnn_layers.4.weight f4 [16]
0	0x3f917af7	1.1365651
1	0x3f8b93f4	1.0904527
2	0x3f866bb8	1.0501623
3	0x3f60f6c7	0.8787655
4	0x3f937833	1.1521057
5	0x3fa422de	1.2823141
6	0x3fa67bfd	1.3006588
7	0x3fa0ff47	1.2577904
8	0x3f6bbd01	0.9208527
9	0x3f842cea	1.0326207
10	0x3f310ae2	0.6915723
11	0x3f3c431a	0.7353989
12	0x3f7c88b5	0.986461
13	0x3f1b8c4c	0.6076095
14	0x3f62f9bc	0.88662314
15	0x3f7801cd	0.9687775

enc_1.cnn_layers.4.bias f4 [16]
0	0xbb26d6bd	-0.0025457584
1	0x3c89c380	0.016816854
2	0x3c3a0683	0.011354092
3	0xbd801a79	-0.06255049
4	0x3e0a1a98	0.13486707
5	0x3c74d81d	0.014944104
6	0x3e80a507	0.25125906
7	0x3eb362be	0.35036272
8	0x3d254fb5	0.040359218
9	0x3e1f4587	0.15553866
10	0x3e82b57c	0.25529087
11	0x3c7fd0a6	0.0156137105
12	0xbe384bf3	-0.17997722
13	0xbe6fddb4	-0.23424417
14	0xbdbc73ca	-0.092017725
15	0xbda65f14	-0.081236035

enc_1.cnn_layers.4.running_mean f4 [16]
0	0x4086afa0	4.2089386
1	0x40cba6a8	6.364094
2	0xc04ae3bc	-3.1701498
3	0x3f1c7b67	0.611258
4	0xbf9b101b	-1.211429
5	0x409339d7	4.6008105
6	0x409ce0f3	4.9024596
7	0x3f6e356b	0.9305026
8	0x407b0f0f	3.922794
9	0xc0039f4e	-2.0565982
10	0x40f288cf	7.5792003
11	0x3efdc212	0.49562126
12	0xbeead79a	-0.45867616
13	0xbfef97ef	-1.8718241
14	0xbe073fd8	-0.13207948
15	0x40822061	4.0664525

enc_1.cnn_layers.4.running_var f4 [16]
0	0x41df8d5d	27.944025
1	0x41a421e2	20.516544
2	0x4105a0e5	8.351781
3	0x4001abf5	2.0261204
4	0x40d39ebf	6.613128
5	0x40a80ac2	5.251313
6	0x4201be27	32.435696
7	0x40e8d0df	7.275497
8	0x411717df	9.443328
9	0x4167bd4c	14.483715
10	0x4224a4b5	41.160847
11	0x4028f82b	2.640147
12	0x40c98475	6.297419
13	0x408b98e5	4.362414
14	0x4021dcd7	2.529104
15	0x40c41897	6.1280017

enc_2.cnn_layers.0.weight f4 [16, 16, 3, 3]
0	0xbd89b214	-0.06723419
1	0xbd4c4a46	-0.04987552
2	0x3daeeb6c	0.08540997
3	0xbdb01945	-0.0859857
4	0x3d1fec8e	0.039043956
5	0x3d7e5584	0.062093273
6	0xbd52c9ed	-0.051462103
7	0x3d9646e4	0.0733774
8	0xbbcd08bd	-0.006257145
9	0xbac11fe0	-0.0014734231
10	0xbd2804ae	-0.041020088
11	0xbd944a69	-0.07240755
12	0x3d6e1b6d	0.058131624
13	0x3d126fe6	0.035751246
14	0x3c829aff	0.015943049
15	0x3da21604	0.079143554
16	0x3d3f46a9	0.046698246
17	0x3d4f1964	0.050561324
18	0xbca458bb	-0.020061841
19	0xbc690d02	-0.014224293
20	0xbd6d302f	-0.05790728
21	0x3d2877db	0.041129928
22	0xbcd758ac	-0.0262874
23	0xbc077b81	-0.008269192
24	0xbcd290a9	-0.025703745
25	0x3da8efa6	0.08248834
26	0xbc270d03	-0.010195973
27	0xbd52e893	-0.05149133
28	0xbdde30d1	-0.10849155
29	0xbd6735e5	-0.056447882
30	0xbd742779	-0.059607957
31	0xbd896bdc	-0.06710026
32	0xbd7586b7	-0.059942927
33	0x3ddee783	0.10884001
34	0x3d6eb926	0.05828204
35	0x3d0ff5bc	0.03514646
36	0xbba2e3e0	-0.0049710125
37	0x3c668f6f	0.014072283
38	0x3d3c0914	0.045907095
39	0xbca61045	-0.02027143
40	0x3a5ca0ae	0.0008416277
41	0xbcaad533	-0.020853614
42	0x3da0c63f	0.078503124
43	0xbd28fde5	-0.041257758
44	0x3cf8b833	0.03036127
45	0x3dfe33da	0.12412234
46	0x3d4e7034	0.050399974
47	0x3dc4ad66	0.096033856
48	0x3e28680b	0.16445939
49	0x3c539ca3	0.012915763
50	0x3dce6bc6	0.1007915
51	0x3e00772c	0.1254546
52	0x3db55977	0.08854955
53	0x3df1f266	0.11813812
54	0x3e07e40d	0.13270588
55	0x3d84cc2b	0.064842544
56	0x3daf5b5b	0.085623465
57	0x3cf9ece0	0.030508459
58	0x3d894d85	0.06704239
59	0x3d1e8a66	0.038706206
60	0xbc058747	-0.008149928
61	0x3d934bfe	0.07192229
62	0x3d2fb476	0.04289671
63	0x3d93c0e8	0.07214528
64	0x3e14d96d	0.14536066
65	0x3ded8cb7	0.11599105
66	0x3d8c712b	0.068575226
67	0x3dc3446b	0.09534534
68	0x3d5a5e9d	0.053312887
69	0x3e31824a	0.17334858
70	0x3d82d592	0.063883916
71	0x3e1050b7	0.1409329
72	0x3e0b5fa0	0.13610697
73	0x3af90c8a	0.0019000929
74	0xbd5c8e55	-0.053846676
75	0xbbbbcea5	-0.005731421
76	0x3d57bcaa	0.05267016
77	0x3d28d485	0.0412183
78	0x3ced2309	0.02894737
79	0x3d358f9f	0.04432642
80	0x3b254311	0.0025216977
81	0x3d7a13b1	0.061053935
82	0xbe144c32	-0.14482191
83	0xbdceab07	-0.100912146
84	0xbc875a57	-0.01652257
85	0xbdfbce4c	-0.122952074
86	0x3d028a87	0.03187039
87	0xbd91c1d3	-0.07117047
88	0xbab3f3bf	-0.0013729258
89	0x3cb1a5fe	0.021685597
90	0x3d0ae695	0.033911306
91	0x3dda7d8e	0.10668479
92	0x3e1529a9	0.14566673
93	0x3d00fa4a	0.031488694
94	0x3dd5c7c6	0.104384944
95	0x3d37aab1	0.04484052
96	0x3c11f857	0.0089093065
97	0x3e0c5899	0.13705672
98	0x3daffe14	0.085933834
99	0xbd32d51d	-0.043660272
100	0xbd8f975b	-0.07011291
101	0x3d409303	0.0470152
102	0x3dbd29fa	0.09236522
103	0x3d188958	0.037240356
104	0xbc74d314	-0.014942903
105	0x3de197ca	0.110152796
106	0x3d7878ed	0.0606622
107	0x3db01614	0.08597961
108	0x3dc3a0e5	0.095521726
109	0x3d0e4f49	0.03474358
110	0x3cc21ca0	0.02369529
111	0xbd977a0a	-0.07396324
112	0x3bc62a69	0.006047536
113	0xbdacb2d1	-0.08432544
114	0x3d8a0f84	0.067412406
115	0xb8810bb5	-6.15338e-05
116	0xbd9abec1	-0.07555915
117	0x3d08cf36	0.033400737
118	0x3d324909	0.043526683
119	0x3cc43798	0.02395229
120	0x3d409671	0.047018472
121	0x3d0f6343	0.035006773
122	0xbd881434	-0.066444784
123	0xbc95b2da	-0.01827376
124	0x3d729dc5	0.059232492
125	0xbce373c1	-0.027765157
126	0x3d4ca383	0.049960624
127	0x3daab6a8	0.0833562
128	0xbd8ca5f6	-0.06867592
129	0x3da5d6f3	0.08097639
130	0xbd50c324	-0.05096735
131	0x3d8b6812	0.06806959
132	0x3d8d862a	0.069103554
133	0x3dc06a39	0.0939526
134	0x3dd65a9e	0.104665026
135	0x3c74747a	0.014920348
136	0x3d0f5719	0.034995172
137	0x3d5ab0a5	0.053391118
138	0x3dcfd855	0.10148684
139	0x3d55a9a1	0.052163724
140	0x3dcc65e3	0.09980371
141	0x3e31bec2	0.17357925
142	0x3d9dab54	0.07698694
143	0x3d3e3a82	0.046442516
144	0xbd0e2f14	-0.034712866
145	0xbdaf4828	-0.085586846
146	0xbde70300	-0.11279869
147	0xbd4aff1d	-0.0495597
148	0x3cd0c0bc	0.025482528
149	0xbd827578	-0.06370062
150	0xbd606cff	-0.054791447
151	0xbded7aa1	-0.11595655
152	0xbe141698	-0.14461744
153	0x3c281433	0.010258722
154	0xbd85a49b	-0.065255366
155	0xbd95809d	-0.07299922
156	0xbc826ff7	-0.01592253
157	0xbdfadf3e	-0.12249611
158	0xbcf5f8c1	-0.030025842
159	0xbdc5e11e	-0.09662078
160	0xbe01e526	-0.1268507
161	0xbd3342d9	-0.043764923
162	0x3c9c2de6	0.019064855
163	0x3d8354df	0.06412672
164	0x3df07ad4	0.117421776
165	0x3d5e039a	0.054202653
166	0xbc0f3ad0	-0.008742049
167	0x3d86598d	0.06560049
168	0x3d9d0071	0.076661
169	0x3cc00e69	0.023444371
170	0x3c3079f8	0.010771267
171	0xbabb3609	-0.0014283072
172	0xbcdbaa96	-0.02681474
173	0x3cadc525	0.02121217
174	0xbdae8bec	-0.08522782
175	0xbcbae7bd	-0.02281558
176	0xbd527b7a	-0.051387288
177	0xbd2f9c24	-0.042873517
178	0xbdf76e03	-0.1208153
179	0xbe101d30	-0.14073634
180	0x3e19dc2c	0.15025395
181	0x3a6c7da6	0.00090214086
182	0x3df89246	0.121372744
183	0x3c8f27b6	0.01747499
184	0x3d72f65c	0.059316978
185	0x3d839b71	0.064261325
186	0x3c59a6f3	0.013284433
187	0xbd0d85b4	-0.034551337
188	0xbd4bdaf2	-0.04976935
189	0xbdf350b3	-0.118806265
190	0xbc73a783	-0.014871481
191	0xbade7ab7	-0.0016973828
192	0x3d805df9	0.06267924
193	0x3c86ef8c	0.016471647
194	0xbd8f5d20	-0.07000184
195	0x3b275bef	0.0025536974
196	0xbd510ad5	-0.05103572
197	0xbd1fb71e	-0.038992994
198	0xbcdc113c	-0.026863687
199	0xbc8a680a	-0.016895313
200	0xbdd5ab0d	-0.10433016
201	0xbd7be5f5	-0.0614986
202	0xbdd771a0	-0.10519719
203	0xbe194505	-0.14967735
204	0xbcfec29f	-0.031098662
205	0xbca3d0fa	-0.019997109
206	0x3bfdc05f	0.0077438797
207	0xbe204123	-0.15649848
208	0xbc30453e	-0.010758696
209	0xbddce4c2	-0.107858196
210	0xbdcc871b	-0.09986707
211	0xbe2ba23b	-0.16761105
212	0xbcc319b7	-0.023815973
213	0xbddea07c	-0.10870454
214	0xbe355d98	-0.17711484
215	0xbdaa1626	-0.08305006
216	0x3c8a8b69	0.016912179
217	0x3caf301e	0.021385249
218	0xbd33a71f	-0.04386055
219	0x3c1d882d	0.009614986
220	0x3c067e00	0.008208752
221	0xbc81a979	-0.015827881
222	0xbdcbc1e2	-0.099490896
223	0xbd040792	-0.032233782
224	0xbe03459b	-0.12819521
225	0xbd8544cd	-0.06507263
226	0xbd58f73e	-0.052970164
227	0x3db9c96e	0.09071623
228	0xbdab4bd2	-0.08364071
229	0x3d46370b	0.048392337
230	0xbd0167c5	-0.031593103
231	0xbd006720	-0.031348348
232	0xbe1fb3b6	-0.15595898
233	0xbe003fa7	-0.12524281
234	0xbdac537b	-0.0841436
235	0x3c22e173	0.009941447
236	0xbd8ba50c	-0.068185896
237	0xbd0d7d51	-0.03454334
238	0xbcf81ce6	-0.030287217
239	0x3b89ea9a	0.004208875
240	0xbd600298	-0.054689974
241	0xbcef802c	-0.029235922
242	0xbe2c92e4	-0.1685291
243	0x3d9cd5bf	0.07657956
244	0x3c3d172f	0.011541172
245	0xbda35cc1	-0.07976676
246	0xbd088657	-0.03333124
247	0x3dae79ab	0.085193
248	0xbc84ac22	-0.01619536
249	0x3dbf88a2	0.093522325
250	0x3da8e805	0.08247379
251	0xbb7afdfa	-0.0038298354
252	0xbb8eef34	-0.0043620113
253	0x3d5f6c89	0.054546867
254	0x3d6a0ecb	0.057143014
255	0x3db58895	0.088639416

enc_2.cnn_layers.1.weight f4 [16]
0	0x3f6f8b1c	0.9357164
1	0x3f7da217	0.99075454
2	0x3f6f14db	0.933912
3	0x3f862638	1.0480413
4	0x3f7facf4	0.9987328
5	0x3f4e5aed	0.8060749
6	0x3fa1177c	1.2585292
7	0x3f5cda0c	0.86270213
8	0x3fa5ab20	1.2942848
9	0x3f80bee3	1.0058254
10	0x3f57144a	0.84015334
11	0x3f39369e	0.72348964
12	0x3f5d09ed	0.8634327
13	0x3f828f8f	1.0200061
14	0x3faf590f	1.3699054
15	0x3f66f022	0.90210164

enc_2.cnn_layers.1.bias f4 [16]
0	0xbdfad25a	-0.122471526
1	0xbdac045d	-0.0839927
2	0xbd007f93	-0.031371664
3	0x3def6e19	0.11690921
4	0x3e49a56e	0.19692013
5	0xbe2e95af	-0.17049287
6	0x3d86ce5a	0.06582327
7	0xbe129a57	-0.14316688
8	0x3e565254	0.20929843
9	0xbe0f25a7	-0.13979207
10	0xbe49526d	-0.19660349
11	0xbdeb971b	-0.115034305
12	0xbe05efcf	-0.13079761
13	0xbdcce6c0	-0.100049496
14	0x3f0f6edd	0.5602854
15	0xbdf16626	-0.117870614

enc_2.cnn_layers.1.running_mean f4 [16]
0	0x4012b366	2.2921996
1	0xc0020d0f	-2.032047
2	0x40022632	2.0335813
3	0x3fefaf28	1.8725328
4	0x3f9d1381	1.2271577
5	0x3fb28322	1.3946269
6	0xc0226ab3	-2.5377624
7	0x3fdd2ad8	1.72787
8	0xbf4a333c	-0.7898443
9	0x3fe95875	1.823012
10	0x3fd1d5ca	1.6393368
11	0x411489d2	9.283648
12	0x3fb9cf69	1.4516422
13	0x401d14cc	2.4543943
14	0x3fd4c207	1.6621712
15	0x40cabf8e	6.335883

enc_2.cnn_layers.1.running_var f4 [16]
0	0x41099c90	8.600723
1	0x41391b42	11.569155
2	0x40abd82f	5.3701396
3	0x40d0780e	6.514655
4	0x4188c171	17.094454
5	0x40372303	2.861512
6	0x40e6ce19	7.2126584
7	0x40b9868f	5.7976756
8	0x40b84f23	5.7596602
9	0x40d450e3	6.634874
10	0x408bcf28	4.3690376
11	0x4310dae8	144.8551
12	0x40317232	2.772595
13	0x418aac88	17.334244
14	0x410ab51b	8.669215
15	0x426f5e49	59.842075

enc_2.cnn_layers.3.weight f4 [16, 16, 3, 3]
0	0x3e5b54f5	0.21419127
1	0x3dec4588	0.115366995
2	0x3df314e6	0.118692204
3	0x3e192de2	0.14958909
4	0x3e1d430f	0.15357612
5	0x3e447b7b	0.19187729
6	0x3e5b3f00	0.21410751
7	0x3e64ffe4	0.2236324
8	0x3e8286fd	0.25493613
9	0xbda8e711	-0.082471974
10	0xbdb9bae7	-0.09068852
11	0xbd29d7f4	-0.041465715
12	0xbc474af8	-0.01216387
13	0x3d5c85c5	0.05383851
14	0xbdfe00a5	-0.12402467
15	0x3d52d965	0.051476855
16	0x3c8b180e	0.016979244
17	0xbda40e90	-0.0801059
18	0x3da1fe66	0.07909851
19	0x3e05b569	0.13057484
20	0x3de1f58c	0.110331625
21	0x3e512ffb	0.2042846
22	0x3e1dd2b3	0.15412407
23	0x3dddc574	0.10828677
24	0x3e34c4dd	0.17653222
25	0x3e4c84e7	0.19972573
26	0x3d45b5d3	0.048269104
27	0xbdbe9003	-0.09304812
28	0xbd1cd41b	-0.038288217
29	0xbe098d8d	-0.13432904
30	0xbd5d5a11	-0.054040972
31	0xbd8cfe4a	-0.06884439
32	0xbdf5a133	-0.11993637
33	0xbd3282b4	-0.04358168
34	0xbde22d45	-0.11043791
35	0xbd2aadf3	-0.041669797
36	0xbe14991f	-0.14511536
37	0xbe1bd7d2	-0.15219048
38	0xbd3f8da9	-0.046765957
39	0xbe3ed0fd	-0.1863441
40	0xbe2b25a1	-0.16713573
41	0xbd8915ef	-0.066936366
42	0xbe29221d	-0.1651692
43	0xbd532205	-0.051546115
44	0xbdd169ef	-0.10225283
45	0x3e07ad64	0.13249737
46	0x3e2ec789	0.17068304
47	0x3d4631b3	0.04838724
48	0x3d9be6f4	0.0761241
49	0x3d47e8fb	0.048806172
50	0x3d9d93fc	0.076942414
51	0x3d8ebf4d	0.069700815
52	0x3d2806e7	0.041022208
53	0x3ddbecf9	0.10738558
54	0xbd38a13e	-0.045075648
55	0x3d9b1065	0.075714864
56	0xbcaade92	-0.020858083
57	0x3c5ebc0a	0.013594637
58	0x3d85c40c	0.065315336
59	0xba8c7ef3	-0.0010718986
60	0x3d64c237	0.05584928
61	0x3e12ba37	0.14328848
62	0x3d47fe27	0.048826363
63	0x3e670787	0.22561465
64	0x3e1ad3d1	0.15119864
65	0x3e0c9457	0.13728462
66	0x3e3bd132	0.1834152
67	0x3e266175	0.16248114
68	0x3dd16c01	0.10225678
69	0x3d90587e	0.070481285
70	0x3e164626	0.14675197
71	0x3d929015	0.07156388
72	0x3c520806	0.012819296
73	0x3d8bb75e	0.06822084
74	0xbda7a696	-0.081860706
75	0xbc8fcca6	-0.017553639
76	0xbd4bfe63	-0.04980315
77	0xbd890a4f	-0.06691419
78	0x3db7d7d9	0.089767165
79	0xbcf65680	-0.030070543
80	0x3d664ae7	0.056223776
81	0x3e6e407f	0.23266791
82	0x3e4022bf	0.18763255
83	0x3e5160a8	0.20447028
84	0x3e16b9e5	0.1471935
85	0x3dc1519a	0.094393924
86	0x3d97a6ab	0.07404836
87	0x3e2da1c8	0.16956246
88	0x3da56e86	0.08077721
89	0x3e3caa05	0.18424232
90	0x3df20847	0.11817985
91	0x3d8fae89	0.07015712
92	0x3e3a9af0	0.18223166
93	0x3d9fc297	0.07800787
94	0x3e1d93ac	0.15388364
95	0x3d938251	0.0720259
96	0x3dd35557	0.10319012
97	0x3e1688b5	0.14700587
98	0x3db0ed41	0.086390026
99	0x3ca68ec0	0.02033174
100	0x3e0f612f	0.14001916
101	0x3d76dd99	0.060269926
102	0xbb896f92	-0.0041942084
103	0x3dca8da6	0.098902985
104	0x3d897c9a	0.06713219
105	0xbdfc35ee	-0.12314974
106	0xbc9278ef	-0.017879931
107	0x3da8c524	0.082407266
108	0x3e17be24	0.14818627
109	0x3e520003	0.20507817
110	0x3e152057	0.14563118
111	0x3da7f408	0.08200842
112	0x3e16effa	0.14739981
113	0x3e60390e	0.21896765
114	0x3ddde290	0.10834229
115	0x3d907e9e	0.070554
116	0x3e00f4be	0.12593362
117	0x3e3ba946	0.18326291
118	0x3e596336	0.21229252
119	0x3de38494	0.11109272
120	0x3e360b59	0.17777766
121	0x3e37c667	0.17946778
122	0x3e277ab4	0.16355401
123	0x3e12f453	0.14351015
124	0x3e26e47a	0.16298094
125	0x3e82ddac	0.25559747
126	0x3d4dda88	0.050257236
127	0xbcdf8fa4	-0.027290173
128	0xbdbc5000	-0.09194946
129	0xbd3fd39e	-0.046832673
130	0xbd82a6a2	-0.06379439
131	0x3c63a836	0.013895085
132	0x3de18bee	0.110130176
133	0xbd323605	-0.04350855
134	0x3d8e01ce	0.06933938
135	0x3e1a2411	0.1505282
136	0x3dd3bd20	0.10338807
137	0x3de064a5	0.109566964
138	0xbd23b814	-0.039970472
139	0x3d0c4dab	0.034253757
140	0x3e01f0aa	0.12689462
141	0x3dbf11bf	0.09329557
142	0xbd394389	-0.045230422
143	0x3d568b72	0.05237908
144	0xbdac535a	-0.084143355
145	0x3d4ee3f1	0.05051035
146	0xbc24039a	-0.010010624
147	0xbd08b118	-0.033372015
148	0x3d5eacfd	0.054364193
149	0xbda04696	-0.07825963
150	0x3db42c2e	0.08797489
151	0xbd56297a	-0.05228565
152	0x3df47ee9	0.11938269
153	0xbdf14d35	-0.11782304
154	0xbb6a468c	-0.0035747616
155	0xbddef95e	-0.10887407
156	0xbd200811	-0.039070193
157	0xbdb1b55d	-0.086771704
158	0xbdd031f0	-0.10165775
159	0xbdda4319	-0.10657329
160	0xbceb08ff	-0.028690813
161	0xbdc11b13	-0.09428992
162	0x3cfb537a	0.030679453
163	0x3ca5c353	0.02023474
164	0xbd0ebf5e	-0.03485047
165	0x3d53adde	0.051679485
166	0x3dae11fd	0.08499525
167	0x3ccdd0be	0.02512395
168	0x3dfd3856	0.12364261
169	0xbb592d79	-0.0033138676
170	0x3e014ef4	0.12627774
171	0xbd3ea580	-0.04654455
172	0xbe364c9c	-0.17802662
173	0xbcb0092e	-0.021488752
174	0xbe31f1be	-0.17377374
175	0xbdf3fbcd	-0.119132616
176	0xbe3a378b	-0.1818525
177	0xbc8b5a1e	-0.017010745
178	0xbdef28f6	-0.116777346
179	0xbd8da2ff	-0.06915855
180	0x3d9fc727	0.07801657
181	0x3debc37e	0.115118966
182	0x3e1b82fd	0.15186687
183	0x3e3ff12a	0.1874434
184	0x3e360e39	0.17778863
185	0x3d90833b	0.0705628
186	0x3d70f5e9	0.05882827
187	0x3deb3136	0.114839956
188	0x3e3bca3e	0.18338868
189	0x3db411e9	0.087924786
190	0x3d39d9cc	0.045373723
191	0x3dab88cd	0.08375702
192	0x3dc545b3	0.09632435
193	0xbd907311	-0.07053197
194	0xbd903b95	-0.07042614
195	0xbad4c0eb	-0.001623181
196	0x3d5332bc	0.051562056
197	0xbd8159c6	-0.06315951
198	0xbcfcf2c2	-0.030877475
199	0x3c105a9e	0.008810667
200	0xbc7e65a4	-0.015527163
201	0xbd38080b	-0.044929545
202	0xbe21b5c6	-0.15791997
203	0xbd9e454a	-0.077280596
204	0xbe236e86	-0.1596013
205	0xbdc3cc0b	-0.095604025
206	0xbdd4f7dc	-0.10398838
207	0xbc6b4f43	-0.014362159
208	0x3d9fed9c	0.07808992
209	0x3da9400b	0.08264168
210	0x3c83f766	0.01610918
211	0xbcf34993	-0.029698169
212	0xbb300d4a	-0.002686339
213	0xbccc9b31	-0.024976345
214	0x3c8185c7	0.01581086
215	0xbc130f2d	-0.008975786
216	0xbdd3b2a2	-0.10336806
217	0xbe296074	-0.165407
218	0xbe4d2bf6	-0.20036301
219	0xbe1b3ca5	-0.15159853
220	0xbe36f719	-0.17867698
221	0xbe539090	-0.20660615
222	0xbe77fd61	-0.2421775
223	0xbe2be02e	-0.16784737
224	0xbdb72d86	-0.0894423
225	0x3d5b9418	0.05360803
226	0x3db4cd4d	0.088282205
227	0xbcf42727	-0.029803826
228	0x3d11d23f	0.035600897
229	0x3e07db3c	0.13267225
230	0x3dbc07da	0.09181185
231	0x3c672a58	0.014109217
232	0x3dd10467	0.10205918
233	0x3d8151c5	0.063144244
234	0xbd3e58e3	-0.046471488
235	0xbd0520ba	-0.032501914
236	0x3d61b674	0.05510564
237	0x3c2d0bc1	0.010561884
238	0x3d354e32	0.044264026
239	0xbd7e3c7d	-0.062069405
240	0x3dd3e488	0.10346323
241	0xbc80bf63	-0.01571626
242	0xbbcb60e9	-0.006206621
243	0xbc339b5b	-0.010962333
244	0x3c21c33e	0.0098732095
245	0xbd471c44	-0.04861094
246	0x3d77004f	0.06030303
247	0x3dbc3685	0.09190086
248	0x3e0c4292	0.1369727
249	0x3d51ee0f	0.05125242
250	0x3cc662d7	0.024217052
251	0x3cb1f1b8	0.021721706
252	0x3db583e5	0.088630475
253	0x3df19214	0.1179544
254	0x3e1240e9	0.14282574
255	0x3d68af77	0.05680796

enc_2.cnn_layers.4.weight f4 [16]
0	0x3f3169ab	0.6930186
1	0x3f7e52e6	0.9934524
2	0x3f373dda	0.71578753
3	0x3f4da084	0.8032305
4	0x3f4fdb0c	0.81193614
5	0x3f3a5f90	0.72802067
6	0x3f223bb0	0.63372326
7	0x3f395b5c	0.7240503
8	0x3f80e49f	1.006977
9	0x3fdc8248	1.7227259
10	0x3f91cbf5	1.1390368
11	0x3f271400	0.6526489
12	0x3f3b7a11	0.73233134
13	0x3f3aab4f	0.72917646
14	0x3f3e9b94	0.74456143
15	0x3f86fad6	1.0545299

enc_2.cnn_layers.4.bias f4 [16]
0	0xbd82eff2	-0.06393422
1	0x3e56d42d	0.20979376
2	0xbe496da0	-0.19670725
3	0xbe567fe3	-0.20947222
4	0xbdf58620	-0.11988473
5	0xbe7679d2	-0.24069908
6	0xbe3d20df	-0.1846957
7	0xbe0b7c0f	-0.13621543
8	0x3d27fd1a	0.04101286
9	0x3d86fec7	0.06591564
10	0x3ef1d8db	0.4723576
11	0xbe379f23	-0.179318
12	0xbe2dc1f7	-0.16968523
13	0xbe05579e	-0.13021705
14	0xbe381712	-0.1797755
15	0x3e131667	0.14364015

enc_2.cnn_layers.4.running_mean f4 [16]
0	0x400e9b61	2.2282336
1	0xbfa094e1	-1.2545434
2	0x3f4ddfd9	0.8041969
3	0x3fffc8bd	1.9983135
4	0x3f885239	1.0650092
5	0x3f5385c4	0.82625985
6	0x3ffae5ae	1.9601343
7	0x3ff10340	1.8829117
8	0xc01938a4	-2.394082
9	0x40b6a477	5.7075763
10	0xbe6d8f30	-0.23199153
11	0x3f2df3df	0.6795024
12	0x4015ba1a	2.3394837
13	0x401f6cbf	2.4910123
14	0x400f41e3	2.2383964
15	0xc009e417	-2.1545465

enc_2.cnn_layers.4.running_var f4 [16]
0	0x41fbeafa	31.489735
1	0x4182f7b6	16.370953
2	0x4192bc10	18.341827
3	0x40fcc2ab	7.898763
4	0x4118ad8c	9.54237
5	0x41a9f2d9	21.243578
6	0x40b2253c	5.567045
7	0x42257387	41.36282
8	0x40e82c08	7.255375
9	0x41b8165f	23.010923
10	0x40d5896a	6.673024
11	0x40ca7f1a	6.3280153
12	0x408621f2	4.1916437
13	0x40856d8a	4.1696215
14	0x407bb8bd	3.9331505
15	0x408f0e68	4.4705086

enc_3.cnn_layers.0.weight f4 [32, 20, 3, 3]
0	0x3d7fb065	0.062424082
1	0xbc5387e0	-0.012910813
2	0xbd7cba5a	-0.061701156
3	0x3da8abc8	0.0823589
4	0x3c953850	0.018215328
5	0xbdd966d6	-0.106153175
6	0x3db3d12c	0.08780131
7	0xbd7db577	-0.061940636
8	0xbd3b7098	-0.045761675
9	0x3cebac82	0.028768782
10	0x3c5f9124	0.013645444
11	0x3bba6ac1	0.0056889956
12	0xbdadfcfb	-0.08495518
13	0xbcf94fcd	-0.03043356
14	0xbd539ad4	-0.051661327
15	0xbdb54431	-0.08850897
16	0xbe34c457	-0.17653023
17	0xbddbe09b	-0.107361995
18	0x3d3209a3	0.04346622
19	0x3c0e6624	0.008691344
20	0xbd40fd86	-0.04711678
21	0x3da601ec	0.08105835
22	0x3d8f495c	0.06996414
23	0xbb703c23	-0.0036656938
24	0x3d27e412	0.04098899
25	0xbd234ba5	-0.039867062
26	0x3d8b1fbf	0.067931645
27	0x3cd6551c	0.02616363
28	0x3d9caee8	0.07650548
29	0xbd3b16aa	-0.04567591
30	0x3c2fbd9b	0.010726358
31	0xbbe211df	-0.006899103
32	0xbda43dc3	-0.080195926
33	0x3c07889f	0.008272319
34	0x3d4b69e6	0.04966154
35	0x3d10ee73	0.035383653
36	0x3ccbb550	0.02486673
37	0x3ba4c105	0.0050278925
38	0xbd4fb7f7	-0.050712552
39	0x3bfab289	0.0076506776
40	0x3ca714b4	0.020395614
41	0xbd833d06	-0.06408124
42	0xbd3cb781	-0.04607344
43	0xbcdca4e3	-0.026934093
44	0x3d238fc2	0.03993202
45	0x3e0cdb7c	0.13755602
46	0xbd33ecfb	-0.043927174
47	0x3d34e603	0.04416467
48	0x3d837060	0.06417918
49	0x3c033050	0.008007124
50	0x3cc92949	0.02455582
51	0xbd3114d7	-0.043232765
52	0x3ca51eb2	0.020156238
53	0x3cf62298	0.030045792
54	0xbd1755ca	-0.03694705
55	0xbd80ea3d	-0.062946774
56	0xbd951280	-0.07278919
57	0x3d07a765	0.033118624
58	0xbd6f4020	-0.058410764
59	0x3cbf5062	0.02335376
60	0x3c52aea2	0.0128590185
61	0xbbd327d1	-0.0064439555
62	0x3d898dd3	0.06716504
63	0x3c40a9f1	0.011759267
64	0x3db1dd45	0.08684782
65	0xbb74ff60	-0.003738366
66	0x3d86463f	0.06556367
67	0x3d01e512	0.0317126
68	0x3c07d61b	0.008290793
69	0x3da2b313	0.07944312
70	0x3d039d74	0.03213258
71	0xbd410b22	-0.047129758
72	0xbcde244c	-0.027116917
73	0xbd422536	-0.04739877
74	0xbc3eb9d4	-0.011640985
75	0xbe599e24	-0.21251732
76	0xbe16b2e8	-0.14716685
77	0xbe17d484	-0.14827162
78	0xbde3f92d	-0.11131511
79	0xbe4c13ed	-0.19929476
80	0xbe0c9026	-0.13726863
81	0xbe2fdf1d	-0.17174955
82	0xbe46ca9b	-0.19413225
83	0xbe3326d7	-0.17495285
84	0xbd9cfe9a	-0.07665749
85	0xbd7805a2	-0.060552247
86	0xbdb2ac34	-0.087242514
87	0xbc80fb2e	-0.015744772
88	0xbdf6747e	-0.12033938
89	0x3cc13354	0.023584045
90	0xbd765362	-0.060138114
91	0xbe47b073	-0.19500904
92	0xbd29087a	-0.04126785
93	0xbde97578	-0.113993585
94	0xbcaabf6c	-0.02084323
95	0xbc156043	-0.009117189
96	0xbc84263d	-0.016131515
97	0x3d2abf1c	0.041686162
98	0xbd5d387d	-0.05400895
99	0x3bd455a5	0.006479936
100	0x3d3de627	0.04636207
101	0x3d301d39	0.04299662
102	0xbcb87379	-0.022516
103	0xbd1a1e4a	-0.037626542
104	0xbcde02a6	-0.027100872
105	0x3c516d0f	0.012782349
106	0xbbcc6e9e	-0.0062387725
107	0x3c2f0ec4	0.010684673
108	0x3c82a786	0.015949022
109	0x38523646	5.0118448e-05
110	0xbd8c695f	-0.068560354
111	0xbc4d5d39	-0.012534433
112	0xbc18629d	-0.009300855
113	0xbc850d3b	-0.01624166
114	0x3d4f73dd	0.050647605
115	0x3ca5bae6	0.020230722
116	0xbc29667b	-0.010339375
117	0x3c89d270	0.016823977
118	0xbd0ad360	-0.03389299
119	0x3d3db840	0.046318293
120	0x3ca87cab	0.020567259
121	0xbd24cc4f	-0.040233906
122	0xbc36da9f	-0.011160522
123	0x3d8c86da	0.068616584
124	0xbd412d37	-0.04716226
125	0xbd6376b1	-0.055533115
126	0xbd5595b2	-0.052144714
127	0xbd8b4df1	-0.068019755
128	0xbd6f6610	-0.058446944
129	0xbdade0b5	-0.08490125
130	0xbdfb361f	-0.12266182
131	0x3dc2a5e2	0.09504296
132	0xbbf83090	-0.0075741485
133	0xbdd8f9c0	-0.10594511
134	0x3da29e17	0.079403095
135	0xbe1db5b2	-0.15401343
136	0xbd05f01a	-0.03269968
137	0xbd7120d4	-0.058869198
138	0xbdb2af33	-0.08724823
139	0xbdca6663	-0.0988281
140	0xbddbc751	-0.10731376
141	0xbd098aa7	-0.033579495
142	0xbe2cdb24	-0.1688047
143	0xbe13b1b9	-0.14423265
144	0x3dd7c784	0.105361015
145	0x3acb4fa8	0.001551141
146	0xbd1880af	-0.037232097
147	0x3d8c64d8	0.06855172
148	0x3c80cd23	0.015722817
149	0x3d1bb69d	0.03801595
150	0x3d9a6f4f	0.07540762
151	0x3dbf3852	0.09336914
152	0x3da5534f	0.080725305
153	0xbdf94fd6	-0.121734306
154	0xbd7a0103	-0.06103612
155	0xbe23cf52	-0.15997055
156	0xbd40d57a	-0.047078587
157	0xbdb08ec8	-0.08620983
158	0xbd4784fc	-0.04871081
159	0xbe1396ab	-0.14412944
160	0xbdb659c0	-0.08903837
161	0xbe1eb721	-0.15499546
162	0x3e62b07c	0.22137636
163	0x3dc9e483	0.09858038
164	0x3e6b0d19	0.22954215
165	0x3e4e410f	0.20142005
166	0x3dc5bd0d	0.09655199
167	0x3e02b9be	0.12766168
168	0x3db0d938	0.08635181
169	0x3e3b1c6d	0.18272562
170	0x3e07c18b	0.13257425
171	0x3ddf9957	0.10917919
172	0x3dc9fa8e	0.09862243
173	0x3c9b3fc5	0.018951306
174	0x3dd04007	0.10168462
175	0x3d93d16f	0.07217681
176	0x3d7098d3	0.058739495
177	0x3e28ccba	0.16484347
178	0x3d9d78d2	0.0768906
179	0x3cf6628f	0.030076293
180	0x3daea372	0.085272685
181	0x3da3e00f	0.0800172
182	0x3d9144c7	0.07093196
183	0x3d71a906	0.058999084
184	0x3ce48f49	0.027900355
185	0x3d188db0	0.0372445
186	0x3d2f354e	0.042775445
187	0x3d9c13b2	0.07620944
188	0x3d3fed9d	0.046857465
189	0x3d3737bc	0.044730887
190	0x3e0ee0a2	0.13952878
191	0x3abd8070	0.0014457833
192	0x3d8ae095	0.06781117
193	0x3d7ccdf1	0.06171984
194	0xbd043f57	-0.032286968
195	0x3dcbb10d	0.09945879
196	0x3d81c9fd	0.06337354
197	0x3dafff7a	0.0859365
198	0x3c80be56	0.01571576
199	0x3d57a2ec	0.05264561
200	0x3b2040ca	0.002445268
201	0xbc93690a	-0.017994422
202	0x3c900ef8	0.017585263
203	0xbc837be3	-0.016050285
204	0x3d23612b	0.03988759
205	0x3d7a6f17	0.0611411
206	0x3e0974d5	0.13423474
207	0x3df80602	0.12110521
208	0x3de717b9	0.112838216
209	0xbbf92699	-0.007603478
210	0x3e387656	0.18013892
211	0x3dba37cf	0.09092676
212	0x3d8f5576	0.06998722
213	0x3e84a2d8	0.2590549
214	0x3e6e2927	0.23257886
215	0x3e2a10af	0.16607927
216	0x3d7c3449	0.0615733
217	0xbccdfd56	-0.025145214
218	0xbb7a31b5	-0.00381766
219	0x3e319e8a	0.17345634
220	0x3dd3efe7	0.10348492
221	0x3d02479b	0.03180657
222	0x3e59012f	0.21191858
223	0x3e20fdad	0.1572177
224	0x3d13d4c8	0.036091596
225	0x3bb8fdc4	0.0056454856
226	0x3d1e1fe9	0.03860465
227	0x3d285378	0.041095227
228	0x3dad8610	0.08472836
229	0xbd064a06	-0.032785438
230	0x3d07488a	0.033028163
231	0x3ca9d24b	0.020730158
232	0x3de3c22c	0.1112102
233	0x3d0d93cd	0.034564782
234	0x3dee0a61	0.11623073
235	0xbb964ead	-0.0045870156
236	0xbd772697	-0.060339537
237	0x3d92237f	0.071356766
238	0x3dda982f	0.10673558
239	0xbd510a06	-0.05103495
240	0x3e09bf99	0.13451995
241	0x3ddddcaf	0.10833108
242	0x3dc3a5d8	0.095531166
243	0xbd442ed6	-0.04789623
244	0xbde58679	-0.11207289
245	0xbd4c4495	-0.049870092
246	0xbd960272	-0.07324685
247	0xbdf2afc2	-0.118499294
248	0x3b3ccc17	0.002880817
249	0x3baeade2	0.005330787
250	0xbda69431	-0.08133734
251	0xba22b927	-0.00062073994
252	0x3daa5ee2	0.08318879
253	0x3cc36bf4	0.023855187
254	0x3d7cc3c1	0.061710123
255	0xbc9d53bf	-0.019204972

enc_3.cnn_layers.1.weight f4 [32]
0	0x3f83a911	1.028597
1	0x3f720a7d	0.94547254
2	0x3f791f1f	0.9731311
3	0x3f8030d9	1.0014907
4	0x3f416553	0.75545233
5	0x3fa29d20	1.2704201
6	0x3f84f016	1.0385768
7	0x3f7c29f7	0.98501533
8	0x3f669e13	0.9008495
9	0x3f77f53a	0.9685856
10	0x3f8930fa	1.0718071
11	0x3f625987	0.8841786
12	0x3f6ef905	0.93348724
13	0x3f5c3e2e	0.8603238
14	0x3f93cabe	1.1546247
15	0x3f7e9c16	0.9945692
16	0x3f9ce152	1.2256262
17	0x3f76daa4	0.9642737
18	0x3f547051	0.8298388
19	0x3f834e35	1.0258242
20	0x3f42f4dc	0.76154876
21	0x3f5e4e65	0.8683837
22	0x3f691509	0.9104772
23	0x3f9afd9f	1.2108649
24	0x3f7a29ea	0.97720206
25	0x3f3bafe4	0.7331526
26	0x3f966371	1.1749097
27	0x3fac12e3	1.3443264
28	0x3f63a274	0.8891976
29	0x3f7af89d	0.98035604
30	0x3f9f2986	1.2434547
31	0x3f8d944e	1.1060884

enc_3.cnn_layers.1.bias f4 [32]
0	0x3d0fa1cc	0.03506641
1	0xbe097fb3	-0.1342762
2	0xbd05889e	-0.03260099
3	0xbd5b9191	-0.05360562
4	0xbe47ab73	-0.19498996
5	0x3d0dcd20	0.03461945
6	0x3d0567b7	0.032569613
7	0x3bfa2d05	0.0076347613
8	0xbd9e3bcb	-0.07726248
9	0x3d3fc76f	0.046821054
10	0x3d5897e5	0.052879233
11	0x3c08aede	0.008342473
12	0xbdaf7f56	-0.08569209
13	0xbc0c51f3	-0.00856446
14	0x3ce4d038	0.027931318
15	0xbdee3013	-0.11630263
16	0xbe06548f	-0.13118194
17	0xbd8c25f2	-0.06843175
18	0xbdfd6e5b	-0.12374564
19	0x3e0f4a13	0.13993101
20	0xbe6952bf	-0.22785471
21	0xbd119f90	-0.03555256
22	0xbd615ad9	-0.05501828
23	0x3d8156ab	0.06315359
24	0x3c50fc11	0.01275541
25	0xbde08716	-0.109632656
26	0xba3c4cd7	-0.0007183081
27	0x3d6f2c67	0.058391955
28	0xbd8ee11b	-0.06976529
29	0xbd4a1cac	-0.04934375
30	0x3ccb0a5d	0.024785215
31	0xbe90d522	-0.28287607

enc_3.cnn_layers.1.running_mean f4 [32]
0	0xc019464b	-2.3949153
1	0x3ec22e0d	0.3792576
2	0x3fa4f7fc	1.2888179
3	0x3d6c5bec	0.05770485
4	0x3f9778b8	1.1833715
5	0xc0014ea5	-2.020425
6	0x3fad8c28	1.3558397
7	0x3dabdce0	0.08391738
8	0x3f671d57	0.90279144
9	0x3dc0644e	0.093941316
10	0xbedd32d1	-0.43202832
11	0x3f06f8fb	0.52723664
12	0xbf325ae9	-0.6966997
13	0x3f81fdd4	1.0155587
14	0xc001f9ed	-2.0308793
15	0x3fb6b6d1	1.4274541
16	0xbf05555a	-0.5208336
17	0xbf0daece	-0.55344856
18	0x3fd5493d	1.6662976
19	0x3f849526	1.0358016
20	0x3fb4c9c1	1.412407
21	0xbfadd7c7	-1.3581475
22	0x4027dc27	2.622812
23	0x3fa17d53	1.2616371
24	0xbe972831	-0.2952285
25	0x3fc0ab7a	1.505233
26	0xc036c670	-2.8558617
27	0xc01dc6e2	-2.4652638
28	0xc0058a2f	-2.086559
29	0x3ed81e03	0.42210397
30	0xc023ac31	-2.5573847
31	0x3f9e8536	1.2384403

enc_3.cnn_layers.1.running_var f4 [32]
0	0x3ff1809d	1.8867375
1	0x40bcdd7e	5.9020376
2	0x400fbbb9	2.2458327
3	0x4063ec50	3.5612984
4	0x40c1912f	6.0489726
5	0x41df4aaa	27.911457
6	0x3faede18	1.3661528
7	0x3f56721e	0.8376788
8	0x40ca4413	6.32081
9	0x403b1ada	2.923514
10	0x3fa3dc2e	1.2801569
11	0x40ec3771	7.3817677
12	0x3fe4d003	1.787598
13	0x40570087	3.3594072
14	0x40cacee8	6.337757
15	0x4135a356	11.352377
16	0x40769457	3.852804
17	0x3fce813a	1.6133187
18	0x410a3373	8.637561
19	0x3ff46f07	1.9096383
20	0x408b3cfb	4.351194
21	0x407729e2	3.8619313
22	0x411305a5	9.188878
23	0x40d19200	6.5490723
24	0x3fa4ff3b	1.289039
25	0x4128969d	10.536771
26	0x409ab56b	4.8346457
27	0x40b6c662	5.7117167
28	0x402adf94	2.6698961
29	0x3fa4d3c2	1.2877123
30	0x40316800	2.7719727
31	0x40e3f692	7.123849

enc_3.cnn_layers.3.weight f4 [32, 32, 3, 3]
0	0xbdd59350	-0.10428488
1	0x3a000cf1	0.0004884741
2	0xbdf5e612	-0.12006773
3	0xbd49b39a	-0.049243547
4	0xbd60b854	-0.05486329
5	0xbc13b859	-0.00901612
6	0xbafd9866	-0.0019347786
7	0xbd7dec5f	-0.061993
8	0xbcef7f9e	-0.029235657
9	0xbd57a025	-0.05264296
10	0x3d081b57	0.0332292
11	0xbd2e8683	-0.04260875
12	0xbd240736	-0.04004594
13	0xbd469db3	-0.048490237
14	0xbce89539	-0.028391467
15	0x3c30ee40	0.010798991
16	0x3d16de06	0.03683283
17	0xbcadc2dc	-0.02121108
18	0xbbefb9e1	-0.0073158597
19	0x3cf33d50	0.029692322
20	0xbc897880	-0.016781092
21	0x3c4c5fdf	0.012474029
22	0x3daee245	0.08539251
23	0xbcae21af	-0.021256296
24	0xbc5d8f2c	-0.013522904
25	0x3d4d3cd5	0.050106842
26	0x3d8b840a	0.06812294
27	0xbcd35130	-0.02579555
28	0xbd3958a8	-0.045250565
29	0x3d23e277	0.040010896
30	0x3d56b525	0.052418847
31	0x3c994ffd	0.0187149
32	0x3d55c91f	0.052193757
33	0xbd939467	-0.0720604
34	0xbd645b08	-0.055750877
35	0x3c6f4920	0.014604837
36	0x3cf36061	0.029709043
37	0x3c2e4e29	0.010638752
38	0x3b05c600	0.0020412207
39	0xbb4e463e	-0.0031474973
40	0x3c801003	0.015632635
41	0x3d0c5ff4	0.034271196
42	0xbbd8d865	-0.006617593
43	0xbc0ae758	-0.008478008
44	0x3d5897eb	0.052879255
45	0xbb2e2418	-0.0026571807
46	0xbd50c34e	-0.050967507
47	0xbcdcc7c0	-0.026950717
48	0xbc3a854a	-0.011384318
49	0x3cdef92c	0.027218424
50	0xbd8034a6	-0.06260042
51	0x3d23a0f1	0.039948408
52	0xbd566d8d	-0.05235057
53	0xbc8748ae	-0.016514149
54	0xbdb1206e	-0.086487636
55	0x3d0dc2e2	0.034609683
56	0xbd002c8c	-0.031292483
57	0xbdf156d6	-0.11784141
58	0xbd1fdef6	-0.03903099
59	0xbc099bad	-0.008398932
60	0xbdb00401	-0.08594514
61	0xbcdda65b	-0.027056864
62	0xb822eef7	-3.8846363e-05
63	0xbda01a7f	-0.07817554
64	0x3c6e9d4b	0.014563869
65	0xbd32fe70	-0.04369968
66	0xbda6d0d8	-0.081453025
67	0x3af81945	0.0018928429
68	0x3caeb54e	0.021326687
69	0xbb6ad50b	-0.003583255
70	0xbd95a1b4	-0.07306233
71	0xbd9ea2f0	-0.077459216
72	0x3d1468a7	0.036232617
73	0xbd7fac44	-0.062420145
74	0xbd6f4413	-0.05841453
75	0xbce41137	-0.02784024
76	0x3cbf36ff	0.023341654
77	0x3ca43c19	0.020048188
78	0x3c67990d	0.014135611
79	0x3ab946c3	0.0014135469
80	0xbc5ac052	-0.013351517
81	0xbccacb4f	-0.024755148
82	0xbd885a1e	-0.066578135
83	0xbd50a78e	-0.050941043
84	0xbb20b9b4	-0.002452475
85	0xbd8157f7	-0.06315606
86	0xbd8f0449	-0.06983239
87	0xbc419d7f	-0.011817335
88	0xbc55f542	-0.013058962
89	0xbc805d75	-0.015669564
90	0xbd9f46fb	-0.0777721
91	0xbd6fd095	-0.05854853
92	0xbdce1242	-0.10062076
93	0xbbb2e9db	-0.0054600067
94	0xbc1b92c2	-0.009495439
95	0xbd91c772	-0.07118119
96	0xbc1bbf8f	-0.00950612
97	0xbdd87e3e	-0.10570954
98	0xbdd4f7d0	-0.10398829
99	0x3b01efa5	0.0019826677
100	0x3c730831	0.014833496
101	0x3ce0b313	0.02742914
102	0xbc0b73e3	-0.008511516
103	0xbc4c2b69	-0.012461522
104	0x3cf037cb	0.02932348
105	0x3c17b9cf	0.009260609
106	0xbc40268a	-0.011727938
107	0xbce81ef9	-0.028335081
108	0xbd89df78	-0.067320764
109	0xbdca0596	-0.09864347
110	0xbdafba5f	-0.08580469
111	0xbcd646bd	-0.026156778
112	0xbc9658a8	-0.018352821
113	0x3caa8421	0.020814957
114	0xbb5d2c8e	-0.003374848
115	0xbd97d533	-0.074137114
116	0xbc9b1e9a	-0.01893549
117	0x3d6e142a	0.0581247
118	0x3d1feeb1	0.039045993
119	0x3d09acc9	0.033612046
120	0x3d9de673	0.0770997
121	0xbc6390c8	-0.013889499
122	0xbcd7d27e	-0.026345488
123	0x3b177cf8	0.0023115259
124	0x3d84c23e	0.06482361
125	0xbd289f3c	-0.041167483
126	0xbd8e7055	-0.069550194
127	0xbcd5bd9b	-0.026091387
128	0xbd844e55	-0.06460253
129	0xbd1f5ff3	-0.038909864
130	0xbc68129c	-0.014164593
131	0xbb73bbcc	-0.0037190793
132	0x3ce5ed1c	0.028067164
133	0x3da104ab	0.078622185
134	0x3d9c082c	0.07618746
135	0x3d42aae6	0.047526263
136	0x3d6a7ab7	0.057245936
137	0xbd043df2	-0.03228564
138	0xbd7f80af	-0.06237858
139	0x3aeb9607	0.0017973789
140	0xbd8e9351	-0.06961692
141	0xbce39016	-0.027778666
142	0x392ac930	0.00016287412
143	0xbd940891	-0.072281964
144	0xbc960432	-0.018312547
145	0x3be91022	0.007112519
146	0x3cb7f5ab	0.02245601
147	0x3c4fc5f9	0.012681478
148	0x3c836408	0.01603891
149	0xbc9963be	-0.018724319
150	0x3d43d45f	0.047809955
151	0x3cd56734	0.026050188
152	0xbcb7fdfd	-0.022459978
153	0xbd8fafc8	-0.070159495
154	0xbd9bc0b9	-0.07605118
155	0xbd1327c0	-0.03592658
156	0x3c9ebdbc	0.019377582
157	0x3d2d58ce	0.04232102
158	0x3ce2c835	0.027683357
159	0xbbdcab57	-0.0067342925
160	0x3d6109d3	0.05494101
161	0x3bebf668	0.007201005
162	0xbcf9b5fc	-0.030482285
163	0xbbea4feb	-0.0071506402
164	0x3cd04521	0.025423588
165	0xbd4226ac	-0.04740016
166	0x3c1020b4	0.0087968595
167	0xbbbd8bd3	-0.0057844906
168	0xbc046a24	-0.0080819465
169	0x3c89f18c	0.016838811
170	0xbda7fdb1	-0.08202685
171	0xbdaa5f64	-0.083189756
172	0x3d008b2e	0.031382732
173	0xbd91ff6e	-0.071287975
174	0xbde69949	-0.112597056
175	0x3c5973a8	0.0132722035
176	0xbc6bb6f3	-0.01438688
177	0xbdc095a3	-0.09403541
178	0xbd6154ea	-0.05501262
179	0xbd78bc62	-0.06072653
180	0x3d614fee	0.055007868
181	0xbc7deac1	-0.015497864
182	0xbd04eaf8	-0.032450646
183	0xbbbb9dec	-0.005725613
184	0x3d0c37be	0.034232847
185	0xbc8ecc7b	-0.017431488
186	0xbd0eb990	-0.034844935
187	0xbd5e1ce1	-0.05422676
188	0xbce73e48	-0.02822794
189	0x3d9cfdd1	0.07665599
190	0x3cf101f0	0.02941987
191	0x3b0b85bf	0.0021289436
192	0x3cdcd4c6	0.026956927
193	0x3da6bf4f	0.08141958
194	0xbc693065	-0.01423273
195	0x3c9e7246	0.0193416
196	0x3d52c596	0.051457964
197	0x3c82f798	0.015987203
198	0xbc9e2189	-0.0193031
199	0xbd7c375e	-0.06157624
200	0xbbeedfa8	-0.0072898455
201	0xbcd0d5ac	-0.025492512
202	0xbd5dcb50	-0.054148972
203	0xbc3dd1c7	-0.011585659
204	0xbd7f5bc5	-0.062343378
205	0x3d5ed809	0.054405246
206	0xbd58fb5d	-0.052974094
207	0xbba53be5	-0.0050425404
208	0x3da26ffc	0.079315156
209	0x3cb1ad5f	0.021689115
210	0x3aa251af	0.0012383963
211	0x3d6a7ff8	0.057250947
212	0x3c94fd41	0.018187167
213	0x3d0ff372	0.035144277
214	0xba8c6714	-0.0010711872
215	0x3d82c76f	0.06385695
216	0xbd9b06df	-0.0756967
217	0xbd57e617	-0.052709665
218	0xbd8f82b3	-0.07007351
219	0xbd8ab89f	-0.06773495
220	0x3b839c6a	0.0040164487
221	0xbcdda4fa	-0.027056206
222	0xbd9562bb	-0.07294222
223	0xbd19a7a5	-0.037513394
224	0x3d0e290c	0.034707114
225	0x3d85fdd3	0.06542554
226	0x3d1a075d	0.03760468
227	0xbb41b715	-0.0029558588
228	0x3cc0f2a6	0.023553204
229	0xbcd50013	-0.026001012
230	0xbd64de9e	-0.055876367
231	0xbacde0a3	-0.0015707206
232	0xbd7acf72	-0.06123299
233	0x3a1a5485	0.0005887228
234	0x3c536f26	0.012904918
235	0xbd041a88	-0.032251865
236	0xbc90ce00	-0.017676353
237	0xbcfb9001	-0.030708315
238	0xbd3901a2	-0.045167573
239	0xbcdedf28	-0.027206019
240	0xbb5a1db1	-0.0033281858
241	0xbd5694b9	-0.052387927
242	0x3cb98329	0.02264555
243	0xbcdc6c2e	-0.026907053
244	0xbbb54f13	-0.005533108
245	0xbdc29585	-0.09501175
246	0x3d29492a	0.04132954
247	0xbaa8daef	-0.001288263
248	0x3c8376dd	0.01604789
249	0xbcd0afd5	-0.025474468
250	0xbb5c204b	-0.0033588584
251	0x3cbe3172	0.023216937
252	0xbc43eca1	-0.011958272
253	0x3a65e9e0	0.0008770507
254	0x3c440db6	0.01196616
255	0xbb97c7e1	-0.0046319817
