resources/testing/lsp_xai_maze_0SG.ExpNavVisLSP.pt (torch, 484274 bytes, 113 tensors)

enc_1.cnn_layers.0.weight f4 [16, 3, 3, 3]
000000 97 4b bf 3d f0 0d c8 3d f5 53 0e be 8e dc 36 be
       0.093405895 0.09768283 -0.13899215 -0.17857572
000010 97 3d 56 be dc 23 7b 3d c2 50 0d 3e fd bc 84 be
       -0.20921932 0.061313495 0.13800338 -0.25925437
000020 e4 af 42 bd f7 73 5b be 94 6b c8 bd eb 0d 42 be
       -0.047531024 -0.21430956 -0.09786144 -0.18950622
000030 68 8f 7f be 37 bc 92 be d8 53 5a be e5 68 32 be
       -0.24957049 -0.28659222 -0.21321046 -0.17422827
000040 38 df 97 bd 47 ba 14 3e 43 e7 71 be 63 7f 72 be
       -0.074156225 0.14524184 -0.23623376 -0.23681407
000050 70 8f 3b be a8 1e 0e be 55 ae b5 be 47 6a 90 be
       -0.18316436 -0.13878882 -0.35484567 -0.28206083
000060 25 cb 2c bd f5 37 3c bd 42 23 00 be 03 31 05 be
       -0.04218592 -0.045951802 -0.1251345 -0.13006978
000070 09 da 5d 3e 73 c5 52 3d a9 e0 d2 3d a8 9b 3c 3e
       0.21665205 0.051457833 0.10296757 0.18418753
000080 cb fb ab bb 3b d8 a7 bd d5 b4 fa 3d 7b 6b cc 3d
       -0.005248522 -0.081955396 0.12241522 0.09981438
000090 5b b2 05 be b2 5e 84 be 2c 40 23 be de 25 5a be
       -0.13056318 -0.25853497 -0.15942448 -0.21303508
0000a0 ed 91 a0 be e9 ba a4 be 16 fc 38 be bb df 4a 3d
       -0.31361333 -0.3217385 -0.18064913 0.049529772
0000b0 5e 60 f9 bd fc c7 47 be 0a 1e a4 bd 8e 25 95 be
       -0.12176584 -0.19509882 -0.08013542 -0.29130214
0000c0 53 f4 50 be df 91 47 be 83 8c f2 bd ec 91 d5 bd
       -0.20405702 -0.19489239 -0.11843207 -0.10428223
0000d0 00 64 40 be 87 74 40 3c 26 dd 3b 3e 11 5a ae 3e
       -0.18788147 0.011746532 0.1834608 0.3405309
0000e0 53 2e a8 3d b9 6f ae 3d 1c 08 8b 3e ce 80 e3 3d
       0.08211961 0.08517403 0.27154624 0.11108552
0000f0 36 1c c9 3e a5 e2 a5 3e 27 4f 1c 3e 4c f4 06 bd
       0.39279336 0.3239948 0.15264569 -0.032947823
000100 e3 74 cb 3c 6a b2 fa bd 49 c9 49 bd 02 43 8a bd
       0.02483601 -0.12241061 -0.049264226 -0.06751062
000110 16 5f dd 3d 32 bb a9 bd 2f 9c 23 be cb 1f 98 bc
       0.10809152 -0.08287658 -0.15977548 -0.018569848
000120 f8 b3 02 be 30 34 a0 3d 9f 85 64 3d d7 e0 ca bd
       -0.12763965 0.07822454 0.055791494 -0.09906166
000130 89 e1 19 be 7d af c8 bd 27 b9 2c be c4 a1 0f 3e
       -0.15027441 -0.09799097 -0.16867505 0.14026552
000140 80 99 8b 3d 52 32 c1 3e d4 c8 e8 3e 56 d7 f3 3e
       0.06816387 0.37733704 0.4546572 0.47625226
000150 e5 33 ef 3e 62 7e ff 3e 44 1b 0e 3f 2e 6c f4 3e
       0.4671928 0.4990111 0.55510354 0.47738785
000160 73 0d 0e 3f 4e 67 e9 3e 72 0e 92 bc d7 a7 31 3e
       0.5548927 0.45586628 -0.017829154 0.17349182
000170 26 08 fa 3d 8c 0e cb bc 07 3a 8f 3e eb 66 8f 3e
       0.122085854 -0.02478721 0.2797396 0.28008208
000180 c0 53 a4 3d 43 0a ad bd ee 7f 4e 3d f9 b6 02 3f
       0.080237865 -0.08449223 0.050414972 0.51060444
000190 75 c6 cd 3e 00 1c 97 3e 63 e4 c5 3e 1d 45 14 3f
       0.40190473 0.2951355 0.38650808 0.5791796
0001a0 26 14 c9 3e c4 72 a2 3e f5 2f 96 3e 63 98 a6 3e
       0.39273185 0.31728184 0.29333463 0.32538137
0001b0 4d 05 0c 3d 0d a5 69 3d 6c cf 47 3c 55 20 b3 bc
       0.034184743 0.05704217 0.012195449 -0.021866003
0001c0 30 bf 8d 3e 3e 97 bd bc 87 15 91 bd 5a 8e e8 3d
       0.27684927 -0.023143407 -0.07084184 0.113552764
0001d0 79 eb 84 3e 2e e5 bb be 59 b0 4c bd 4a d6 c9 bd
       0.259609 -0.36698288 -0.049972866 -0.098553255
0001e0 3a af 9b be ec 56 62 be 86 3f 7c bd 49 fb 35 be
       -0.30407125 -0.2210347 -0.06158402 -0.17771639
0001f0 10 58 40 be 7c 69 6d bd 27 69 2a bd e9 7c 85 be
       -0.18783593 -0.057961926 -0.041604187 -0.2607186
000200 46 79 3e be 30 40 a6 bd 89 1f 93 be 87 bf 94 3b
       -0.1860095 -0.081177115 -0.28734997 0.0045394334
000210 b1 57 02 be d5 97 35 be 97 85 45 be c8 5f 3b be
       -0.12728764 -0.177337 -0.19289242 -0.18298256
000220 80 56 fc bc b9 de c0 3d 19 ce 0f 3d 72 05 34 be
       -0.030802965 0.09417481 0.03510866 -0.17580202
000230 1e ef c8 3c 0f 8a 95 bc 75 53 8b be e4 42 07 bd
       0.024528082 -0.018254308 -0.2721211 -0.033022776
000240 a5 34 1c 3d 0c 05 92 bd 19 cb b8 3c 38 b5 00 3e
       0.038136143 -0.07129869 0.022557782 0.1256913
000250 89 fd 21 be b7 57 c7 bd 78 cd 69 3d e9 80 68 be
       -0.15819372 -0.09733527 0.057080716 -0.22705425
000260 a4 0b 3c bd 50 db 2d be f8 13 47 be 58 a5 c2 bd
       -0.04590954 -0.16978192 -0.19441211 -0.09504193
000270 93 50 2e bd 06 89 09 be 3d e6 09 be d9 90 67 3d
       -0.04255731 -0.13431177 -0.13466735 0.056534622
000280 60 dc 0e bd 14 4a ed 3d ad cd c3 3e e4 55 ad 3e
       -0.034878135 0.11586395 0.38242856 0.33854592
000290 5d 7c 8f 3e c1 df 12 3f 48 7b a1 3e 1f c3 9e 3e
       0.2802457 0.5737267 0.3153937 0.3100824
0002a0 c6 92 e5 3e 0b 70 56 3e 12 41 e4 3e 9b ae d4 3d
       0.44838542 0.20941179 0.44580895 0.10384866
0002b0 36 20 50 3e 5c 44 61 3e e0 3c 8b 3d f6 53 87 3e
       0.20324787 0.21998733 0.0679872 0.26431245
0002c0 d5 88 6c 3e 6e ff a8 3e a1 8c 59 3e fb c4 7d 3e
       0.23099072 0.33007377 0.21245052 0.24782173
0002d0 a1 63 df 3e 8a a4 d5 3e 0c c1 0a 3f 4a 2f bb 3e
       0.43630698 0.41727096 0.54200816 0.36559516
0002e0 78 d3 e9 3e 5b f8 d2 3e 10 71 c8 3e 69 59 11 3f
       0.4566915 0.41205105 0.3914876 0.56777054
0002f0 eb 26 d0 3e 06 d0 a9 3e 5b da 87 3e f5 99 57 3e
       0.40654692 0.33166522 0.2653378 0.21054824
000300 cd 82 92 3e 4d 0c d3 3c e8 3b 95 3e b8 05 0a 3e
       0.28615418 0.025762701 0.29147267 0.13478744
000310 3a 7b 0e bd 35 63 8c 3e 4a 5a 11 bd e8 d7 09 ba
       -0.034785487 0.2741944 -0.035486497 -0.0005258308
000320 97 62 4a 3c d6 74 07 3e 58 cf 2a be 71 90 09 3e
       0.012352607 0.13228163 -0.16680658 0.13434006
000330 f9 26 21 be 0a f4 bf 3c 41 b8 f5 3d ac f3 d1 3d
       -0.15737523 0.023431797 0.11998034 0.10251555
000340 8c 78 4d 3e ab 41 12 3d 6b 0e 4c 3e 10 3a 58 3e
       0.20065516 0.035707157 0.19927375 0.21115899
000350 a2 32 01 3d 70 d7 c9 3e 61 ab 60 3e 6e ce 9a 3e
       0.031542428 0.39422178 0.21940376 0.30235618
000360 b2 5f 97 bc 3e 5e ad bd 56 04 74 bd 49 5b 45 be
       -0.018478248 -0.08465241 -0.059574448 -0.19273104
000370 5d 7e 90 bc f5 a2 90 3d b1 a7 3e 3d 05 5a 95 3d
       -0.01763838 0.070623316 0.04654664 0.072925605
000380 1e 49 20 be 96 79 4f bd b9 37 df bd 6d de 2f 3c
       -0.15652892 -0.050653063 -0.108993 0.010734183
000390 ea e2 fe bd f3 01 26 3e 28 88 39 be 43 89 09 bd
       -0.12445624 0.16211681 -0.18118346 -0.03357817
0003a0 8b 28 d8 bd fa b3 a7 bd b6 ed 68 be e6 a8 4d be
       -0.10554608 -0.08188625 -0.2274693 -0.20083961
0003b0 ae 8a 61 be ba d3 75 3d 9a d4 ab bc d8 a7 cd 3d
       -0.22025558 0.06001637 -0.0209754 0.10041779
0003c0 e3 12 50 3d 86 ed d7 bd b7 c6 18 be 61 29 17 3e
       0.05079926 -0.10543351 -0.14919554 0.14761879
0003d0 4a 1f e1 3d 04 9a ab 3e 8b c8 89 3d 4a 14 5c 3e
       0.10992296 0.33515942 0.06727704 0.21492115
0003e0 0b c0 85 3d 0b aa b6 3e 96 7b b6 3e 93 1a b7 3d
       0.0653077 0.35676607 0.35641164 0.089406155
0003f0 90 22 1e 3e 4a c7 41 3e 8d a3 03 be 40 79 22 3e
       0.15442872 0.18923679 -0.12855358 0.15866566

enc_1.cnn_layers.1.weight f4 [16]
000000 f8 46 7a 3f f6 75 96 3f 0c f3 a1 3f c8 1d 86 3f
       0.9776454 1.1754749 1.2652297 1.0477839
000010 a3 64 93 3f eb 63 69 3f 7c ba 72 3f 62 1b 99 3f
       1.1515087 0.9116809 0.948158 1.1961482
000020 c0 d9 89 3f 46 d6 86 3f f6 7d 86 3f 4b 9a 7b 3f
       1.0769577 1.0534141 1.050719 0.9828231
000030 5a d3 9c 3f f8 42 c1 3e c0 c3 88 3f ae 53 02 3f
       1.2251999 0.37746406 1.0684738 0.50908935

enc_1.cnn_layers.1.bias f4 [16]
000000 e2 00 1f bd da b0 82 3e e7 08 74 3e 49 30 64 3e
       -0.0388192 0.25525552 0.23831521 0.22284044
000010 57 0e 5b 3e 0d 26 c0 bd 5c 30 4c 3e a4 b8 68 bb
       0.21392189 -0.093822576 0.19940323 -0.0035510445
000020 8e 53 ff 3d 5d 89 be 3d cc 99 89 3d 32 d6 2c bd
       0.12467109 0.09303544 0.067187876 -0.04219646
000030 97 c1 67 3e 24 27 0d bf 91 24 1a 3d 19 09 91 3e
       0.22632442 -0.5513785 0.03763253 0.28327253

enc_1.cnn_layers.1.running_mean f4 [16]
000000 fe 46 93 bf e6 e7 56 bf 71 31 c9 3e 0e a1 34 40
       -1.150604 -0.839476 0.39295533 2.82233
000010 9c e8 43 bf 57 a6 02 bf cb d9 40 40 32 04 92 3f
       -0.7652681 -0.51035064 3.013293 1.140753
000020 fd b7 04 bf 57 d2 c9 3f 15 cf 98 3f cf 3d f5 be
       -0.51843244 1.5767316 1.1938196 -0.4789872
000030 0f 39 11 40 4f 98 76 c0 13 92 41 3f ec 0f d2 40
       2.2691076 -3.8530462 0.75613517 6.5644436

enc_1.cnn_layers.1.running_var f4 [16]
000000 cf 55 a5 3e a7 bd 47 3e fe 5a 0d 3d d0 89 df 3f
       0.3229203 0.1950594 0.034510605 1.7463932
000010 31 a5 26 3e f7 82 79 3d aa b1 02 40 d3 7b 90 3e
       0.16273953 0.060915913 2.0420938 0.2821947
000020 2c 33 84 3d 5c dc 0b 3f 11 d6 a2 3e d3 fc 7c 3d
       0.06455073 0.54633117 0.31803945 0.06176455
000030 2c 62 8f 3f 07 34 61 40 ef 22 02 3e 46 b3 1d 41
       1.1201835 3.5188005 0.12708639 9.856268

enc_1.cnn_layers.3.weight f4 [16, 16, 3, 3]
000000 e8 b0 ba 3d a6 6e cf 3d 98 a8 40 bd dd df 13 bd
       0.091157734 0.101285264 -0.047035784 -0.036102165
000010 8f aa 88 3d 12 29 82 3c ea fe 51 bd ec df 0c bc
       0.066731565 0.015888724 -0.051268496 -0.008598309
000020 6a 99 58 bd cd ca 25 bd 76 3e 4e 3d 28 24 c0 3b
       -0.052880682 -0.04047661 0.050352536 0.005863685
000030 cd 8b 00 bc 31 4a 84 3c 00 dc 1c 3d 82 bd 3f 3c
       -0.007845831 0.016148658 0.038295746 0.011702897
000040 03 32 5d bd b7 8f b6 bc db fd 02 3d ec 37 84 bc
       -0.054002773 -0.022285325 0.031980377 -0.016139947
000050 53 29 b7 3c 4d e8 8f 3d 09 a3 01 3d ff a0 23 3d
       0.022358572 0.0702673 0.031649623 0.03994846
000060 87 22 00 3e fb 24 3a 3b b8 4d 87 3c f9 ad 45 bc
       0.12513171 0.002840339 0.016516551 -0.012065404
000070 2a cb f5 37 77 98 c9 3d bf 27 0a 3d 7f 09 5d 3c
       2.9300882e-05 0.098435335 0.03372931 0.013491034
000080 9a bc 48 bc e2 eb 44 bc b7 09 3b bc 38 86 a2 bc
       -0.012251997 -0.0120191295 -0.01141589 -0.019839391
000090 03 ea 00 3e 10 df 5a 3d 39 6b ee 3b 87 b9 1d 3d
       0.12589268 0.053435385 0.0072759655 0.03850701
0000a0 6e 59 c8 bc 01 1c 23 3d 33 83 5f 3d af 81 ac bc
       -0.024456706 0.03982163 0.05456848 -0.021057932
0000b0 8a 46 01 3d ea 26 02 bd 3e 34 ea bc 62 0b c6 bd
       0.031561412 -0.031775393 -0.028589364 -0.0967014
0000c0 bd 96 ba bd e6 54 86 bd cc 29 b1 bd 72 a1 22 bb
       -0.09110782 -0.06559162 -0.0865055 -0.0024815467
0000d0 2a ea b1 bd da 82 1c be d6 4c f5 3a ab 94 e8 bc
       -0.086872414 -0.15284291 0.0018714915 -0.028391203
0000e0 d5 72 9a bc 3b 61 2f bd 75 8b 7b bd c2 d1 ad bd
       -0.018853584 -0.042817336 -0.061412293 -0.08487274
0000f0 01 f3 b2 bd 3b d8 5a bd 98 0d 90 39 9b 63 5d 3d
       -0.087377556 -0.05342887 0.00027475948 0.05405007
000100 1e c6 93 3d 87 e4 ce 3d be ef f2 3d d7 e6 7c bb
       0.07215522 0.10102182 0.118621334 -0.003858974
000110 70 e8 00 bd ce 58 87 3d 94 62 5f 3d 5a 70 c6 3c
       -0.03147167 0.06608735 0.05453737 0.024223495
000120 3c 24 0c 3e 83 58 da 3d 97 47 87 3d e7 00 45 3d
       0.13685697 0.106614135 0.066054516 0.048096564
000130 cb a9 c3 bd b0 11 09 3c 8f ca 57 3d 72 18 7b bd
       -0.0955387 0.008366033 0.05268341 -0.06130261
000140 01 b5 ae bd 51 8f 81 3d 7a 9b 93 bb 8e a7 2f 3c
       -0.085306175 0.063261636 -0.0045046182 0.0107211005
000150 13 3c f0 3c b6 ff 72 bd db c6 58 3d 64 85 9f 3c
       0.02932552 -0.059325896 0.05292402 0.019472785
000160 04 13 99 3c 2c 45 27 3d d5 ca 9b 3b b9 8d d3 3d
       0.018685825 0.04083745 0.004754404 0.10329766
000170 ac e1 1f 3d f9 c3 0a 3e 55 18 14 3e ee fc 4f 3d
       0.039033577 0.1355132 0.14462407 0.050778322
000180 8d 75 bc 3d b8 15 04 bd 95 29 83 3d 51 fb 1a 3d
       0.092021085 -0.032247275 0.064044155 0.03783733
000190 0c 50 da bc 2c f9 65 bd 87 d2 c0 3c 1c 96 3c 3c
       -0.026649497 -0.056145832 0.023537887 0.011510398
0001a0 8f 34 82 bd 4f 0f 93 ba 95 6d db bd c7 ff 69 bd
       -0.06357681 -0.0011219772 -0.107142605 -0.057128694
0001b0 66 66 2d bb ab 2f d0 3b 31 0d e5 bc 1c fe 39 3c
       -0.002645874 0.0063533387 -0.027960392 0.011352088
0001c0 b8 96 36 3d 12 99 31 bd 72 c5 48 3c f3 42 7d 3d
       0.04457733 -0.04335887 0.012254106 0.061831426
0001d0 d8 74 c7 bc 3d 8a 89 3c 4a 45 e3 3c 20 32 00 bd
       -0.024347708 0.01678955 0.027743 -0.031297803
0001e0 1c 2b d6 bd 74 20 fb 3b fb 62 d9 bd 7d de b0 bd
       -0.10457441 0.007663781 -0.10614582 -0.08636186
0001f0 9b 98 3f bd 17 3f 28 bd ff 3f ea 3d 3f de fb 3c
       -0.046776395 -0.041075792 0.114379875 0.030745624
000200 48 96 fe 3d 4a d8 21 3d 0e 8e 9c bc 44 aa 84 3d
       0.124310076 0.03951291 -0.019110706 0.06477788
000210 77 fc 0a 3e 9f 8b e0 3c 37 0b 0f 3d 5e ec 1e bd
       0.1357287 0.027410327 0.034922805 -0.038799636
000220 60 de 04 be e2 fe 2c bd 0f 17 f3 bd 20 31 89 bd
       -0.12975454 -0.042235263 -0.118696325 -0.06698823
000230 1c d2 e4 bd 11 5e bb bc f7 33 53 bd a1 0e c9 bd
       -0.11172888 -0.022872003 -0.05156323 -0.09817243
000240 36 6d 1e 3e b5 90 f9 ba 47 6b 26 bd 5b 2c 18 bd
       0.15471348 -0.0019040318 -0.04062965 -0.037151676
000250 56 53 c2 bc 9e c8 37 3e 2f 54 27 3e 96 69 d7 3d
       -0.023721378 0.17947623 0.16340707 0.10518186
000260 ca 00 0a 3d 6b f9 f8 bd 42 e4 24 be fc 29 22 be
       0.03369216 -0.12156948 -0.16102698 -0.15836328
000270 eb b9 5f be 9f 17 be bd 15 87 4e be f2 71 c4 bd
       -0.21848266 -0.09281849 -0.20168717 -0.09592046
000280 d3 39 32 be 53 aa 26 be bc 7b d0 bd 97 2f 11 be
       -0.1740487 -0.16275911 -0.101798505 -0.1417831
000290 1a 90 da bd 60 ca 4a be f9 b7 3a be 1a 40 02 be
       -0.106720164 -0.19803762 -0.18234242 -0.12719765
0002a0 a4 94 ef bd 05 ec bb bd 06 7e 6c be bc b6 18 bd
       -0.11698273 -0.091758765 -0.23094949 -0.037283644
0002b0 4e 45 ae 3d 01 13 38 3d 06 ad ae bc ed 22 79 3d
       0.085093126 0.04494 -0.021322738 0.060824323
0002c0 6e 53 0c 3d 59 4c 24 3d ee ba 9a bb 79 0a c0 bd
       0.034259252 0.040111873 -0.004721991 -0.093769975
0002d0 98 00 39 be e1 63 41 be d6 b3 0e be e0 11 e5 bd
       -0.18066633 -0.18885757 -0.1393579 -0.1118505
0002e0 72 ab 1c be f7 1b 51 be e3 a4 52 be c0 02 43 be
       -0.15299776 -0.20420824 -0.20570712 -0.19044018
0002f0 0b ef 63 be 5c 13 81 be ea 49 b1 bd 63 2e 52 be
       -0.22259156 -0.25210083 -0.08656676 -0.20525508
000300 20 3a 89 bd 3a 00 bc bd c8 f3 24 be 43 01 0b be
       -0.067005396 -0.09179731 -0.1610862 -0.135747
000310 bb 5c de bd 37 55 0f be 08 c1 d8 bd 73 1f b4 bd
       -0.10857531 -0.1399735 -0.10583693 -0.08795061
000320 09 ba 02 be 52 c5 d5 bb d0 df 9c bd e8 5f 83 bd
       -0.1276628 -0.0065237666 -0.07659876 -0.06414777
000330 c8 8e ab 3c 23 94 df bd 26 a4 0d be 92 10 5c 3e
       0.020942107 -0.10916927 -0.13832149 0.21490696
000340 47 7f 38 3e ff d7 49 3e 35 b8 6c 3e 31 97 e6 3d
       0.18017302 0.19711302 0.23117144 0.11259306
000350 94 12 58 3e 3e fd 8a 3e c8 87 5e 3e ea dd 02 3e
       0.21100837 0.27146333 0.21731484 0.12779966
000360 9a 7b 39 bd 6e 55 39 be 87 32 41 be cf 28 23 be
       -0.04528389 -0.18098995 -0.18866931 -0.15933536
000370 d9 ae e3 bd 43 fa 44 be 01 35 ff bd 33 74 0c bd
       -0.11117334 -0.19236092 -0.124612816 -0.034290504
000380 04 37 53 bd df 66 d4 3d 29 2c 0c 3e 1b 91 94 3d
       -0.05156614 0.103711836 0.13688721 0.07254239
000390 cd ca b2 3d 17 82 91 3d 00 19 8f 3d 23 65 f6 3d
       0.087300874 0.07104891 0.0698719 0.12031009
0003a0 30 dc 10 3d 73 dd 27 3d fc cc 08 be 47 ea 1b be
       0.035366237 0.040982675 -0.13359445 -0.15226088
0003b0 95 9a c4 bd ce 0e e6 bd 2b 8c d1 bd ec 1c d8 bd
       -0.09599797 -0.112332925 -0.10231813 -0.105523914
0003c0 d2 66 c9 bd 77 e8 14 be 16 ab 53 3c 6d 07 63 be
       -0.098340645 -0.14541803 0.012919208 -0.22170801
0003d0 cd 14 7a be 40 ed 2a be 98 d8 03 be 0d c6 14 be
       -0.24421997 -0.16692066 -0.12875593 -0.14528675
0003e0 72 15 50 be 5b c4 02 be 8b f3 28 be f3 6e 5c be
       -0.2032068 -0.12770216 -0.16499154 -0.21526699
0003f0 d1 db 3f 3e 56 3a 0c 3e a0 36 b2 3d bc 73 f1 3d
       0.18736197 0.13694128 0.08701825 0.11789653

enc_1.cnn_layers.4.weight f4 [16]
000000 1e ea 80 3f dd 37 8d 3f 8c 18 80 3f 10 ef 8e 3f
       1.0071447 1.1032673 1.0007491 1.1166706
000010 84 95 85 3f 59 6a 81 3f 4a 7d 89 3f ed dc 5c 3f
       1.0436254 1.011058 1.074136 0.86274606
000020 cc 57 8c 3f de 66 84 3f 9d f0 86 3f 36 83 94 3f
       1.0964293 1.0343893 1.0542179 1.1602542
000030 a4 54 85 3f 63 6e 81 3f dd 4c 2d 3f 2f aa 2c 3f
       1.0416455 1.0111812 0.6769541 0.6744718

enc_1.cnn_layers.4.bias f4 [16]
000000 09 d1 30 3a 36 82 ab 3e de 5e 1b bd 63 5e 67 3e
       0.0006745016 0.3349778 -0.03793227 0.225946
000010 75 fc 6a 3e f5 33 16 3e f9 f1 28 3e 0d 27 82 3e
       0.22947867 0.14668258 0.16498555 0.25420418
000020 fa e4 86 3e 23 23 1d 3e e0 b0 44 3e f4 a9 6b 3d
       0.2634657 0.15345435 0.19208097 0.057535127
000030 28 bc e4 3d 08 29 78 3c 02 96 ef be 23 bf bb be
       0.111687005 0.015146501 -0.46794134 -0.36669263

enc_1.cnn_layers.4.running_mean f4 [16]
000000 9c 41 20 3f 84 8b 6f c0 4a ad 15 3f 21 84 3a c0
       0.6260011 -3.7428904 0.58467543 -2.9143145
000010 50 84 1d c0 5e 6c 9f bf ed f2 ca bf ac 5f 2d be
       -2.4612007 -1.2454946 -1.5855385 -0.16931027
000020 00 87 09 c0 1f 2d c6 bf c6 93 0e c0 0b ad d9 3f
       -2.1488647 -1.548252 -2.2277694 1.7005934
000030 14 e2 a4 bf 55 f2 a2 3f 09 57 76 c0 bf d2 68 bc
       -1.2881494 1.2730204 -3.8490622 -0.014210402

enc_1.cnn_layers.4.running_var f4 [16]
000000 f7 ad d3 3f 6a 75 d9 40 30 63 c3 3f e6 bd f6 3f
       1.6537465 6.795583 1.5264645 1.9276702
000010 a1 24 e9 40 56 d8 b8 40 e1 b6 04 40 30 3a 33 42
       7.2857213 5.776408 2.073662 44.806824
000020 68 18 49 40 d5 b4 04 40 93 26 69 40 c6 e6 24 41
       3.1421146 2.073537 3.6429794 10.306341
000030 e6 9f 38 40 1a 4a a3 40 f3 1b 34 42 7f b5 4a 40
       2.8847594 5.1027956 45.027294 3.1673276

enc_2.cnn_layers.0.weight f4 [16, 16, 3, 3]
000000 20 e1 f7 bd 9f 50 ea bd 15 ca 19 3c 6c 8d 0a be
       -0.12103486 -0.114411585 0.009386559 -0.1353051
000010 08 84 1b bd 00 58 52 bd 59 0f 3e bd b1 33 8a 3c
       -0.03796771 -0.051353455 -0.046401355 0.016870352
000020 ca fd b8 bd 97 24 c7 3c 0b cd 63 bb be af 9f bc
       -0.090327814 0.02430944 -0.0034759666 -0.01949298
000030 30 75 86 3d 9c 7a 9b 3d 6e cb 93 3d 69 c6 9d 3d
       0.065653205 0.07591745 0.072165355 0.07703859
000040 fb 56 5d 3d 61 12 7d 3d 72 0a 81 bd 90 18 6f bd
       0.05403803 0.061785106 -0.063008204 -0.058373034
000050 7d fd d8 bd 4c 8a 64 bc 56 46 a9 bd 32 61 7a bd
       -0.10595224 -0.013948988 -0.08265369 -0.06112785
000060 80 b3 bf bd 0c 76 9e 3c bf c6 8a bd c8 27 df 3b
       -0.09360409 0.019343399 -0.06776189 0.006810162
000070 19 90 5c 3b 42 40 5a 3d 47 1e 64 3b 93 d8 59 3c
       0.0033655225 0.053283937 0.0034808086 0.013296264
000080 da 3b 54 3c 85 56 24 3e 2e bb fe 3d 2c 12 d8 3d
       0.012953723 0.1604863 0.124380454 0.10550341
000090 d6 b0 a7 3d d6 ac f0 3d 5d 71 96 3d f0 fe 87 3d
       0.08188026 0.11751716 0.07345841 0.06640422
0000a0 ac b5 e2 3d 1e 2e 1b bc db 02 ab 3d e2 9e 33 bd
       0.110698074 -0.009471444 0.08350154 -0.043852694
0000b0 9e 50 c3 bc ed 9e a7 3d 7b 0d 00 3d 45 07 ef 3d
       -0.023842152 0.081846096 0.031262856 0.116713084
0000c0 ac 63 dd 3d 90 e7 ce bc f6 4e 8d 3d bd 7f a0 3d
       0.108100265 -0.025256902 0.06899826 0.07836864
0000d0 4d 9b f8 3c bd b6 11 3d 6c 75 07 3e 5c 69 a6 3d
       0.03034749 0.035574663 0.13228387 0.081255645
0000e0 b3 8b f5 3d 12 b7 a9 3d f8 20 ff 3d 29 0b a2 3d
       0.11989536 0.08286871 0.1245746 0.07912285
0000f0 4b f7 44 3d 84 30 ed 3d 49 e8 5b 3d 67 05 3e bd
       0.0480874 0.11581519 0.05368832 -0.04639187
000100 e1 11 85 3d 7c ba a8 bb 03 67 27 3c 3f 98 81 3d
       0.06497551 -0.005149184 0.010217431 0.06327867
000110 02 80 32 bd b8 df 9d 3d 23 64 af bc 93 9f 68 3c
       -0.04357911 0.077086866 -0.021410054 0.014198202
000120 ab 94 1c 3e 1b 94 9d 3d 39 cd 53 3d 50 e4 11 3d
       0.15291087 0.076942645 0.051709387 0.035618126
000130 77 7f 06 3e d3 2a ed 3d 5e 6d ca 3a 53 4d 9d 3d
       0.13134561 0.11580434 0.0015443971 0.07680764
000140 1e 7c d5 3c 78 ae cc 3d aa cc 2b 3b 7d 31 e9 3c
       0.02606016 0.09994215 0.0026214519 0.02846598
000150 99 61 b9 3d 63 99 89 3c b2 ea ef 3d da 63 27 3c
       0.090518184 0.016796773 0.117146865 0.010216678
000160 d7 9c c0 3d b3 ba 00 3e da 09 bf 3c a9 70 d8 3d
       0.09404915 0.1257122 0.023320127 0.10568363
000170 33 ad 16 3e 6c 2e 9f 3b ed 44 ff 3d f7 c1 9a 3d
       0.14714508 0.004857829 0.124643184 0.07556527
000180 0a e0 a7 bc 7e 9d 0f 3e c1 53 aa 3d ce be 0e be
       -0.020492572 0.14024922 0.08316756 -0.13939974
000190 7d 11 22 be be 56 3b bd a3 6d d3 bc ae e9 a2 bd
       -0.15826984 -0.04573702 -0.025809115 -0.07954727
0001a0 d8 dd 0e be 54 6e b4 bc aa 86 ab bd e9 08 95 bd
       -0.13951814 -0.022025265 -0.083752945 -0.0727709
0001b0 87 33 15 3e 7d 44 05 3e 08 c4 0a 3e 7d 05 65 bc
       0.14570437 0.13014407 0.13551342 -0.013978359
0001c0 43 84 07 3e d2 9c ee 3b 72 80 d0 3d 04 6f a8 3d
       0.13234048 0.007281878 0.10180749 0.082242996
0001d0 78 c6 1f 3d 4b a9 d9 bc 0b c4 77 bc 85 f9 3e bd
       0.039007634 -0.026569983 -0.015122424 -0.04662468
0001e0 f1 b7 d6 bc 50 d6 44 bd eb 07 14 be 1b 76 eb bd
       -0.026210757 -0.048055947 -0.14456145 -0.11497136
0001f0 6c 39 32 bd 12 2d 07 be e4 1a 34 bd 04 93 0c 3d
       -0.043511793 -0.13200787 -0.043970957 0.034319893
000200 05 49 f0 bd 05 b8 96 3c 0e 6e ce bd ab 7f b8 3c
       -0.11732677 0.018398294 -0.10079585 0.022521814
000210 fd a6 02 3b 44 b1 dd 3c ed 7f b0 3c f7 a3 af bd
       0.0019935959 0.027062066 0.021545375 -0.08576196
000220 1a 90 78 bd 39 ef d8 3c ab 05 72 bc 5c fa b1 bc
       -0.0606843 0.026481258 -0.014771859 -0.021725826
000230 e4 36 43 bc 0d 53 00 3c 1d 83 56 bd b9 38 ce bd
       -0.011914942 0.007832301 -0.052371133 -0.10069413
000240 38 f8 93 bd ad db ac bd cc 08 26 bd f0 53 1d be
       -0.07225078 -0.08440337 -0.040535733 -0.15364051
000250 5f a4 60 bb 21 79 b4 bd 33 a5 fa bd 67 de 10 be
       -0.003427766 -0.08812166 -0.122385405 -0.1414734
000260 7b 7c fb bd da 87 0c 3e 69 21 35 3d 13 a2 11 3d
       -0.12279602 0.13723698 0.044221316 0.035554957
000270 69 3e 01 3e cc 79 6a 3c 4a 5f bd 3d a9 85 ed 3c
       0.12621464 0.014311265 0.092466906 0.028994398
000280 d6 3f 29 3c 05 c2 ed 3d 7f 40 b5 bd 2e a1 48 bd
       0.010330161 0.11609272 -0.08850192 -0.048981838
000290 bc 42 75 3c f4 07 8f bd e4 20 0e be a0 0e 5b bd
       0.014969524 -0.06983939 -0.13879734 -0.053480744
0002a0 c7 98 02 bd 9f b7 c7 bd c3 90 c9 bd a5 bf 26 3e
       -0.03188398 -0.0975182 -0.09842064 0.16284044
0002b0 1a 68 38 3e 06 73 15 3e 07 59 f4 3d 14 3d 34 3e
       0.18008462 0.14594659 0.11931043 0.17601424
0002c0 7b fd 2e 3e b5 70 d6 3d d2 e1 e8 3d 5b c1 dc 3c
       0.17088883 0.10470716 0.11371197 0.026947668
0002d0 ef e4 c9 3d 62 7a 2a bd 94 d9 a0 3d d0 24 8a bc
       0.09858119 -0.04162062 0.07854 -0.016863257
0002e0 96 9d 6a bc 20 48 31 3d 7e 8e b7 3c 33 a2 9f 3d
       -0.014319798 0.043281674 0.022406813 0.07794609
0002f0 a8 e4 18 bc 59 2d 95 bd b4 9e b8 3c 56 88 28 3d
       -0.00933186 -0.0728404 0.022536613 0.041145645
000300 df d7 9e 3d 64 80 9d 3d c8 38 48 bc ad f1 53 3d
       0.07756018 0.07690504 -0.012220569 0.05174415
000310 fe 1c 9b bb bd e9 bd 3c 71 b3 e8 3d 40 24 10 3e
       -0.0047336807 0.023182744 0.11362351 0.14076328
000320 c7 f8 02 3d ca 4b c4 3d de 30 57 3d 0c d0 ee 3c
       0.031975534 0.09584768 0.052536838 0.029151939
000330 67 fc f2 3d a6 5d 12 3e 53 ac 20 3e 39 f0 ae bd
       0.11864548 0.14293537 0.15690736 -0.085419126
000340 8c 85 17 3d 32 48 c4 bd 67 2c be bc 1c 3f e7 bd
       0.036992595 -0.09584083 -0.023214532 -0.11291334
000350 04 fe 06 3d 00 20 91 bd 8e 8a fc bd 45 cb 61 bd
       0.032957092 -0.07086182 -0.12331115 -0.055125494
000360 ff 07 f0 3d 16 fa 19 3e 3d 00 6b 3d 02 3f 1a 3e
       0.11720275 0.15036806 0.057373274 0.15063098
000370 46 bd 11 3e d7 b2 c2 3d 8f 48 43 3d 99 7f 07 3e
       0.14232358 0.09506767 0.04767662 0.13232268
000380 64 3f 49 3d 1f 76 11 3d 1f bd b6 3d 97 b7 17 3e
       0.04913272 0.03551304 0.08922791 0.14816128
000390 71 15 71 3d 44 95 1d 3e 7f 30 e1 3d 9d 70 e4 3d
       0.05885834 0.15388972 0.10995578 0.11154292
0003a0 33 25 13 3d c0 0f 21 3b e6 fa 3c bb 45 3e 9c 3d
       0.035924148 0.0024576038 -0.002883607 0.076290645
0003b0 29 de 50 bc 58 21 8a 3d de ae a6 3d 61 ce d8 3d
       -0.01274828 0.06744641 0.08138822 0.10586239
0003c0 05 3d 4e 3d 64 02 b5 3d 85 12 a1 bc 24 7d 24 bd
       0.05035116 0.088383466 -0.019662151 -0.040158406
0003d0 e5 9e b5 bd 9f d7 0a be f9 2e 39 be 8f 83 8b bd
       -0.08868197 -0.13558815 -0.18084325 -0.06812202
0003e0 e5 77 0f be 9b d8 b0 bd fc 57 a8 bd 56 81 30 be
       -0.1401058 -0.08635064 -0.08219907 -0.17236838
0003f0 5e 98 a7 3b 50 47 91 3d 3e a0 ef 3d 98 a5 e1 3d
       0.005114599 0.0709368 0.11700486 0.110179126

enc_2.cnn_layers.1.weight f4 [16]
000000 5d 62 78 3f fe be 82 3f 28 42 81 3f ad c5 80 3f
       0.9702509 1.0214536 1.0098314 1.0060326
000010 39 f8 82 3f 97 ca 88 3f 43 c8 7b 3f 7c 1b 7b 3f
       1.0232002 1.0686826 0.9835245 0.9808881
000020 6b f2 95 3f 96 c0 88 3f b8 91 7c 3f a5 89 75 3f
       1.1714605 1.0683773 0.9865985 0.95913154
000030 4a 40 4d 3f b8 84 83 3f ec bc 5f 3f 33 9d 80 3f
       0.8017622 1.0274878 0.87397647 1.0047973

enc_2.cnn_layers.1.bias f4 [16]
000000 c0 17 66 3d 60 d9 6e 3e 4e 46 a6 3e 91 75 53 3c
       0.056174994 0.2332511 0.32475513 0.012906448
000010 17 97 0d bc 05 84 8e 3e c7 8b 10 3e a6 63 8c 3e
       -0.00864198 0.27835098 0.14115821 0.27419776
000020 56 b0 9b 3e ce a4 3b 3d 83 37 ae 3e b2 5a 4e bd
       0.3040797 0.045811467 0.34026727 -0.050379463
000030 c3 b7 a1 be 02 e2 e1 3d 80 a8 fa bd 0a 90 0b 3d
       -0.31585512 0.11029436 -0.1223917 0.034072913

enc_2.cnn_layers.1.running_mean f4 [16]
000000 30 98 09 40 b6 46 f5 3f f8 68 af 3e a2 e8 d9 3f
       2.1499138 1.9162204 0.34259772 1.7024119
000010 cb 1c a9 bf 9b f7 22 3f 16 62 53 40 fb 9f 13 40
       -1.3211912 0.63659066 3.3028617 2.3066394
000020 d1 36 35 c0 81 fa cb bf 8d 3f 08 40 91 48 7c bf
       -2.8314707 -1.5935823 2.1288788 -0.9854823
000030 8e ac 22 3f e0 32 a5 3f fe ec c2 bf 06 17 23 40
       0.6354455 1.2906151 -1.5228574 2.5482802

enc_2.cnn_layers.1.running_var f4 [16]
000000 ed 56 c7 40 b1 9a 16 41 11 88 d3 40 8b 06 2f 40
       6.229361 9.412766 6.6103597 2.7347744
000010 c8 fb fe 3f a4 7d b3 40 ad c1 44 41 65 9d 87 41
       1.9920588 5.609087 12.297284 16.951853
000020 2d ac a2 41 12 fe 26 40 47 25 6a 41 bc 2b 8c 3f
       20.33407 2.6092572 14.634101 1.0950847
000030 9c 87 90 3f b2 68 03 40 5f 27 18 40 2e 59 cb 40
       1.1291385 2.053265 2.377403 6.354636

enc_2.cnn_layers.3.weight f4 [16, 16, 3, 3]
000000 a6 f7 d4 3c 69 90 80 bd ed ce 82 bd db 23 15 bd
       0.025996994 -0.06277544 -0.06387124 -0.036411148
000010 09 89 11 bd f6 18 e2 3b f0 30 56 3d 17 b4 8c 3d
       -0.035531078 0.006899948 0.052292764 0.06870287
000020 75 48 cf 3d 2d 77 a9 bd 7b 34 d7 bd 46 41 a2 3c
       0.10121242 -0.08274684 -0.10508057 0.019806515
000030 97 f8 72 bc da 37 8e 3d c1 f1 aa bd fc b8 87 bc
       -0.014829776 0.069442466 -0.08346892 -0.0165677
000040 a9 40 14 3c 8d de 8f bd 1b c2 c6 bd 57 8a 1c bd
       0.009048619 -0.0702487 -0.097049914 -0.03821787
000050 c8 4d 18 bd f0 21 c7 3c 58 4e bf bb 10 1a 0b bd
       -0.037183553 0.024308175 -0.0058381967 -0.033960402
000060 20 65 6e bc ae bd 16 3d cb 61 d4 bd 8c a7 ce 3c
       -0.014550477 0.036801986 -0.10370215 0.025226377
000070 9d 58 94 3d 34 23 7f bc 41 cf 79 3d a6 8e 43 3d
       0.07243464 -0.015572358 0.06098867 0.047743462
000080 65 05 b2 3c e6 a2 31 3d 7e 94 13 bc 96 be c1 3d
       0.021731088 0.043368243 -0.009007571 0.094601795
000090 1a b8 a9 3d 51 31 b6 3d 17 34 04 3e cf 3f b0 3c
       0.08287068 0.08896125 0.12910496 0.021514801
0000a0 76 2e 2d 3d 48 18 ea 3d c2 8d 25 b9 8d dc 10 3e
       0.042280637 0.114304125 -0.00015788435 0.14146633
0000b0 85 99 a4 3d 5d d7 a3 bc 4f a9 c9 3c a1 86 9c bd
       0.08037094 -0.020000154 0.024616865 -0.07642866
0000c0 87 0e 94 bd 59 05 de bd cb cf 98 bd f2 4b a1 bd
       -0.07229333 -0.10840864 -0.07461508 -0.078758135
0000d0 35 04 c5 bd 70 f4 91 39 9d 32 9e bd d0 cc 3b 3d
       -0.09619943 0.00027838675 -0.077244975 0.04584962
0000e0 4f a1 41 bd a0 91 31 bd b1 6c b6 3c 67 7f 1e bd
       -0.047272976 -0.04335177 0.022268625 -0.03869572
0000f0 c7 1a ba bc 9b 19 9c 3d 8a 3b 11 bc f5 76 53 3d
       -0.022717847 0.07622071 -0.008864293 0.05162712
000100 81 45 fa bc e1 d5 1a bc f1 7b 28 3c d2 fe 6f bc
       -0.03055072 -0.009450407 0.010283456 -0.014648156
000110 53 79 2a bd 32 9f 9b bd be d7 01 bd 49 9c 63 bd
       -0.04161961 -0.075987235 -0.03169989 -0.055568967
000120 9e 7e 64 bd e7 e9 11 3c 73 40 01 be 34 8c b5 bd
       -0.055784814 0.008905864 -0.12622242 -0.08864632
000130 8c c8 e4 bd 28 82 dd bd 22 5d 34 ba ed 52 d8 bd
       -0.11171064 -0.10815841 -0.0006880333 -0.10562692
000140 06 89 3e ba 8a 9d 2b 3e 03 83 dc 3d bf 7a 06 3e
       -0.0007268343 0.16759315 0.10767176 0.13132761
000150 e3 83 a9 3d f8 57 67 3c 60 74 54 bc ab 3f d4 3d
       0.082771085 0.0141200945 -0.012967199 0.10363706
000160 0d 47 46 bc 6e 0d c5 3d 32 06 87 bd 00 bb de bd
       -0.012101901 0.09621702 -0.065929785 -0.10875511
000170 a3 c1 a4 3c 5d cb d1 bd 8c 7a fd bc f6 78 a4 bd
       0.020111864 -0.102438666 -0.030942224 -0.08030884
000180 61 a3 60 bd d8 49 8d bc 45 6c 62 bd 77 ff 4c 3d
       -0.05484331 -0.017247126 -0.055279035 0.050048318
000190 0f 40 e3 3d d9 8e cc 3c e8 b8 c0 3d da d8 eb 3d
       0.110962026 0.024970459 0.09410268 0.115159705
0001a0 87 60 7a 3d 87 0e 47 3b b8 c0 c1 3c 0d a7 ca 3d
       0.061127212 0.003037365 0.023651466 0.09895144
0001b0 e5 09 56 3d 68 f0 09 3e e6 1a af 3d 40 cb 5a 3c
       0.05225553 0.13470614 0.08550052 0.013354123
0001c0 42 12 97 3d 84 84 01 3e 35 2a 52 3d 40 4e 0f bc
       0.07376529 0.12648207 0.051309783 -0.008746684
0001d0 c3 cb 24 3d 44 fd 2b bd 44 6c 04 3d e4 93 b5 bd
       0.040233385 -0.04198958 0.032329813 -0.088660985
0001e0 49 7c e4 bc b2 46 a3 bc 7e c0 07 bd 4d dd 78 bb
       -0.027891295 -0.019931171 -0.03314256 -0.0037973702
0001f0 a0 ef 19 3c ff 18 92 3d cf f9 bd 3d ce c5 6d 3c
       0.00939551 0.07133674 0.09276163 0.014512492
000200 a9 1c a7 bc b5 21 09 bc bd e9 ce bc 4c c9 90 3d
       -0.020399408 -0.008369853 -0.02525794 0.07069644
000210 26 60 09 3e 17 aa b6 bc bc 29 c0 3d 4c 0c c3 3d
       0.13415584 -0.022297902 0.0938296 0.0952383
000220 a3 d2 7e 3d 3e 1f 88 3d b2 64 7e bd dd ac b2 3c
       0.062212598 0.06646584 -0.06210775 0.021810943
000230 48 e9 ba 3d 2f 50 bf 3d 5d b4 e4 bc 00 c5 78 3d
       0.09126526 0.09341466 -0.027918035 0.06073475
000240 f4 10 8d bd 24 f1 8b 3d 9b cf 60 3c 01 5e 6b bc
       -0.06887999 0.06833103 0.013721372 -0.014365674
000250 ed 1e ae 3d d0 43 53 bd 64 8e ba 3d 8e 34 4d bd
       0.085019924 -0.051578343 0.0910919 -0.05009895
000260 a4 33 e6 3d 5f d9 c2 bd e3 a4 de ba 3f ee 47 bd
       0.112403184 -0.095141165 -0.0016986396 -0.048811194
000270 4f 7d af 3c 4a 18 8b 3c f2 19 85 bd 16 1c f4 bc
       0.021422056 0.016979355 -0.06499089 -0.029798549
000280 3e f1 8c 3d 7c f5 a9 bc d3 16 a2 bd bc a4 98 bd
       0.06881951 -0.020746939 -0.079145096 -0.074532956
000290 88 40 e2 bd 0c 46 0d bd 68 b8 dc bb 84 bc 81 bd
       -0.110474646 -0.03449063 -0.00673585 -0.063347846
0002a0 71 97 7b 3d 57 94 dd bd c7 92 34 3d 00 6b 01 3e
       0.061423723 -0.10819309 0.04408529 0.12638474
0002b0 31 8f b3 3b f7 5c 18 3e 93 f8 45 3c 89 64 a4 3d
       0.005479716 0.14879213 0.0120831905 0.08026988
0002c0 c3 6b 24 3c 21 37 04 3e 80 82 46 3c 4c bb 11 3d
       0.010035458 0.12911655 0.012116075 0.03557901
0002d0 85 4f 46 3d 41 a5 00 3e b9 1d f6 3d 2b 9c 3e 3e
       0.04841568 0.1256304 0.12017388 0.18614261
0002e0 40 42 2e 3e 6c ae 65 3d ae 6a 8d 3d da 1c e2 3d
       0.1701746 0.056074545 0.06905113 0.11040659
0002f0 f5 b3 20 3e 6d 89 d4 bc 9f 47 b3 bb 80 62 5d 3b
       0.15693648 -0.025944436 -0.0054711844 0.0033780634
000300 ba 90 85 3c 15 7d f2 bd 17 b5 07 be dc d7 98 bd
       0.016304363 -0.11840264 -0.13252674 -0.07463047
000310 2a 53 3d 3b dc 26 ef bd f7 a1 fe 3c 26 10 7a 3d
       0.002888868 -0.11677334 0.03108309 0.061050557
000320 fd fc 59 3d e5 88 ef 3c 92 1c bd bd a5 6d 30 3c
       0.053219784 0.029240081 -0.09233965 0.010768329
000330 f6 52 35 bd 8e fd f5 3b fe 51 c8 bb 4f 28 99 bc
       -0.04426857 0.0075070327 -0.00611329 -0.018695978
000340 99 c9 90 3d 77 27 69 3d 88 66 9e bb ce aa ce bc
       0.07069702 0.056922402 -0.004834 -0.02522793
000350 20 a4 ff bc a1 d9 98 bd 95 51 d3 3b 28 fb 50 bd
       -0.03120619 -0.074633844 0.0064489343 -0.05102077
000360 c6 9c c6 bc c0 f4 c5 bd 90 7c 0e be e7 3f 9e bd
       -0.024244677 -0.09665823 -0.13914704 -0.07727032
000370 0b fe c0 bd 61 ce 02 be c3 06 15 be 7c 05 99 bd
       -0.09423455 -0.1277404 -0.1455336 -0.07471749
000380 a7 67 de 3a 3b ac e2 3d 65 0c 25 3e 3c 58 03 3d
       0.0016968147 0.110680066 0.1611801 0.03206657
000390 39 41 c3 3d 29 41 3a 3e 24 6e 19 3e 2a 40 da 3c
       0.095339246 0.18188919 0.14983422 0.026641924
0003a0 21 b7 18 3e c6 66 0f 3e 5e 69 df bd b0 4e 90 bd
       0.14913608 0.14004049 -0.10908769 -0.070462584
0003b0 b8 f1 42 b9 47 31 70 bd a2 3e 7b 3c d7 be df bd
       -0.00018591329 -0.058640745 0.015334757 -0.10925072
0003c0 86 48 6a 3d 9e 21 71 bd b1 a0 82 bd 8f 7d f7 3c
       0.05719807 -0.05886995 -0.06378306 0.030211238
0003d0 72 d0 0a 3e fd a6 f1 3c 72 32 89 3d 8a db 11 3e
       0.13556078 0.029498572 0.06699075 0.14243904
0003e0 c3 07 2c 3e 12 9c 2e 3d a6 71 68 3d a4 74 90 3d
       0.16799836 0.04262931 0.05674901 0.070534974
0003f0 3f 57 3f 3d 2b c3 9a 3d 0b a6 e8 3d b8 a2 77 3d
       0.046714064 0.075567566 0.11359795 0.060457915

enc_2.cnn_layers.4.weight f4 [16]
000000 0e 1e 8e 3f e1 02 84 3f 69 4f 03 3f 86 50 7b 3f
       1.1102922 1.0313379 0.51293045 0.98169744
000010 09 17 98 3f 00 2b 6b 3f e8 d5 7a 3f 15 e3 83 3f
       1.188203 0.9186249 0.97982645 1.0303675
000020 a4 7b 7c 3f b7 cc c1 3e ab 4d a1 3f 1c 9e 86 3f
       0.9862616 0.37851498 1.2601827 1.0517001
000030 07 95 15 3f 10 26 64 3f c4 d0 80 3f 89 5f 80 3f
       0.5843052 0.8912058 1.006371 1.0029155

enc_2.cnn_layers.4.bias f4 [16]
000000 7d 5f 89 3d 57 b7 60 bc 1a 75 6a bd dc 12 a8 bd
       0.06707666 -0.013715587 -0.057240583 -0.08206722
000010 b2 14 9b 3d 4d b0 dc bd cd 85 27 bb b6 f7 96 3c
       0.07572307 -0.10775814 -0.002556193 0.018428665
000020 10 04 4e bd c8 4f aa bd 14 bb 86 3e 96 cd 39 3d
       -0.050296843 -0.08315998 0.26314604 0.045362078
000030 bb 3a 16 bc 27 02 76 3c 46 ec f4 3c 01 3c 06 bc
       -0.009169276 0.015015162 0.02989782 -0.008193017

enc_2.cnn_layers.4.running_mean f4 [16]
000000 43 0d 9c bd 03 d4 8b 3e d5 9d b9 3f 2d c9 4c bf
       -0.07619717 0.2731019 1.4501292 -0.7999447
000010 d6 9f 39 bf fa 1c b9 bf a5 aa c2 bf 9a 10 98 be
       -0.72509515 -1.4461968 -1.5208327 -0.29700166
000020 ff 91 e0 bf bf cb 14 c0 84 20 81 3e 37 a8 22 bf
       -1.7544554 -2.3249357 0.2522012 -0.63537925
000030 55 4a cc 3f 99 e5 2f 40 f4 56 d2 be b7 70 8f bf
       1.5960184 2.7483885 -0.41081965 -1.1206273

enc_2.cnn_layers.4.running_var f4 [16]
000000 3e a4 5e 40 87 7a b1 40 02 35 11 41 ca 7e 05 40
       3.4787745 5.546207 9.075441 2.0858636
000010 5f dd 69 40 82 86 ea 40 66 b4 6a 40 2b 98 b7 3f
       3.6541364 7.3289194 3.6672606 1.4343313
000020 df 10 b2 40 a2 cf f9 40 6e 8e 2d 40 10 01 be 3f
       5.5645595 7.806596 2.7118182 1.4844074
000030 51 3f d2 40 4b 64 61 40 7f 2b fe 3f e7 6b 4f 40
       6.570229 3.5217464 1.9857024 3.2409608

enc_3.cnn_layers.0.weight f4 [32, 20, 3, 3]
000000 52 17 ba 3a 80 b5 5a bd 87 c5 86 bd c1 d6 25 3c
       0.0014197624 -0.05339575 -0.06580644 0.010122002
000010 d8 f7 ac bb 2c e2 99 bd 66 c3 27 3d d7 d4 be bd
       -0.0052785687 -0.07513842 0.04095783 -0.0931794
000020 7a 79 3f bd dd 50 e6 3c 38 15 b1 3c e8 38 80 3b
       -0.04674671 0.02811473 0.021616563 0.0039130338
000030 6a 95 1d bd 6b b3 57 3d a8 fa 20 3c 68 55 39 3b
       -0.03847257 0.05266134 0.009825386 0.0028279666
000040 20 06 7b bd cb bc c1 bb dd da 2a bd 60 85 8d bd
       -0.061285138 -0.0059123985 -0.04171263 -0.06910205
000050 05 ef 00 be 4e 98 ea bc df 7d 9b bc db ed b7 bd
       -0.12591179 -0.028637078 -0.018980918 -0.08980914
000060 28 db 66 bd 5e 3d 11 be 30 c9 3d bd b5 7a 11 bd
       -0.056361347 -0.14183566 -0.046334445 -0.035517413
000070 18 24 20 3d d3 2f 7a bd 32 04 21 bd af 79 0a bd
       0.03909692 -0.061080765 -0.03931064 -0.033807453
000080 05 bf 9a bd 4d 01 cf 3b 5e 5e e9 3c f4 42 aa 3c
       -0.07555965 0.0063172937 0.02848738 0.020783879
000090 ed 43 8f bd fa 56 89 bd 71 c4 f2 bd c8 79 2d bd
       -0.06995378 -0.067060426 -0.118538745 -0.042352468
0000a0 bd 5d 19 bd 83 d1 df bd 28 e6 83 bd 6d 30 50 bd
       -0.03744291 -0.10928633 -0.06440383 -0.050827432
0000b0 7b c1 34 3d ac 3d 19 3d 35 04 d0 bd 92 5a 0a ba
       0.04412983 0.03741233 -0.101570524 -0.0005277778
0000c0 e2 fe 55 3c 72 a5 b3 bc 3c e3 cb 3c dc f5 96 bd
       0.013061257 -0.021929476 0.024888627 -0.07371113
0000d0 89 a5 13 3d f6 2a 7e 3d 63 fd cd bd c6 b2 d1 bd
       0.03604654 0.06205269 -0.10058095 -0.102391765
0000e0 0d a4 9a bd c8 ff c6 ba cf 7f 83 bd b6 8d 9c 3c
       -0.075508215 -0.001518243 -0.06420862 0.019110542
0000f0 e0 07 bc 3c db 89 6d 3b c6 31 8a 3d 0f ab 26 bd
       0.022952974 0.0036245498 0.06747775 -0.040690478
000100 87 44 ce 3c 5f 3e 62 3d 5f 56 cf 3c 0b 7d 83 3c
       0.02517916 0.055235263 0.02530974 0.016050836
000110 fa f6 92 3d 84 da 38 bb 1b 66 ca bc 46 49 17 bc
       0.07176013 -0.0028206417 -0.02470689 -0.009233778
000120 35 11 65 3c cd c9 8b 3b 8f ae 47 bc 74 8f d5 bd
       0.013981153 0.004266 -0.012187614 -0.10427752
000130 00 da 22 bd d7 23 48 bd 9c 4e 7f bc e2 56 aa bd
       -0.039758682 -0.048862305 -0.015582707 -0.08317353
000140 a5 81 54 bd 14 a2 3a bd 72 b9 33 bd fb 12 e7 bc
       -0.05188145 -0.045564726 -0.043878026 -0.028207293
000150 b9 ce 79 3c 16 0f 26 3d e8 d2 97 bc 73 ec 82 3d
       0.01524704 0.04054173 -0.018533185 0.06392755
000160 ec 53 9f bd 19 1b 70 3d 95 04 b8 bc 6e 5d 04 be
       -0.07779679 0.058619592 -0.022463122 -0.12926266
000170 67 68 88 3c bf 3c b8 bd 3d c5 00 3d 2b b0 11 3d
       0.016651345 -0.089959614 0.0314381 0.035568397
000180 22 41 08 bd f3 80 28 3d 69 93 ad bd a2 06 ce bd
       -0.03326524 0.0411386 -0.08475382 -0.10059859
000190 2b 5a 9a bc aa 61 b5 bc 60 46 c0 bd b5 fd bd bd
       -0.018841824 -0.022141296 -0.09388423 -0.092769064
0001a0 bf 33 66 bd e3 70 4b bd 83 9f 36 bd e2 04 e0 bc
       -0.056201693 -0.049668204 -0.044585716 -0.027346078
0001b0 5d 88 af bc f9 ba 85 bd 5a 0c d7 bd c4 4d 9a bd
       -0.021427328 -0.06529803 -0.10500403 -0.07534364
0001c0 ce b9 90 bd f6 c2 8f bc 1e 8c 23 3d bf 38 69 bc
       -0.070666894 -0.01754902 0.039928548 -0.014234721
0001d0 4c 35 9d bd 44 53 22 3d 91 1e d3 bc 53 82 98 3d
       -0.07676181 0.03963019 -0.025771411 0.07446732
0001e0 73 80 1f 3c 4d 4d 37 bd 19 2c 0b 3c d6 06 1d 3d
       0.0097352145 -0.044751454 0.0084944 0.038336597
0001f0 43 70 70 bd 3c ef 6e bd 25 ba 06 be 1a 1b 35 bd
       -0.05870081 -0.05833362 -0.13156946 -0.0442153
000200 49 eb 08 be 95 f4 ee bd 99 ca f2 bd 3d 89 8f 3a
       -0.13371004 -0.11667744 -0.11855049 0.0010950934
000210 c3 29 ff bd 25 cd 0c be b0 98 7d bb b6 b9 c5 bd
       -0.12459137 -0.13750131 -0.0038695745 -0.09654562
000220 39 83 2f 3d 9a c8 f6 bc 96 c7 b9 bc 91 1c 0d bd
       0.042849753 -0.030124951 -0.022678178 -0.03445107
000230 2d 06 e4 bc d0 b3 e1 3c 27 aa a2 bd 58 14 58 bd
       -0.027834976 0.027551562 -0.0794261 -0.052753776
000240 bb 40 8f 3e be 1b 4b 3e 81 ca 2b 3e 54 00 80 3e
       0.27979073 0.19834802 0.16776468 0.2500025
000250 78 e1 60 3e 10 10 80 3e 15 b6 82 3e 70 46 97 3e
       0.2196101 0.25012255 0.25529543 0.29545927
000260 7a 06 95 3e 9b d4 52 3e 33 1e 80 3e d8 58 15 3e
       0.29106504 0.20588915 0.2502304 0.14584672
000270 c3 e3 8f 3e 9e 6d 66 3e 5d 83 83 3e bd cf 3b 3e
       0.28103456 0.22502753 0.2568616 0.18340965
000280 51 1f 63 3e cc 90 19 3e f5 97 0d 3d cf dc a8 bd
       0.22179915 0.14996642 0.034568746 -0.08245241
000290 a6 02 53 3d 35 d9 7b 3c c1 95 ab bd 9e 18 4b bd
       0.051516198 0.01537161 -0.08378173 -0.049584024
0002a0 0a 01 dc bd 30 3f b5 bb e1 5f 58 bd 6d ca 46 3e
       -0.10742386 -0.005531214 -0.052825812 0.19413157
0002b0 12 43 45 3e 5d 52 f9 3d 06 e6 3d 3e 1c ed 28 3e
       0.19263867 0.12173913 0.18544778 0.164967
0002c0 a0 1c 24 3e 58 a1 7b 3e c9 33 2b 3e 42 9d 04 3e
       0.16026545 0.24573267 0.16718973 0.12950614
0002d0 b5 a4 e5 bc 63 a3 0e bd 2a 99 4c bd 8d b7 c9 bd
       -0.02803264 -0.034823786 -0.049950756 -0.09849463
0002e0 d5 ab 0c be 11 0a b6 bd f9 74 01 be cd 41 90 bd
       -0.13737424 -0.08888639 -0.12642278 -0.070438005
0002f0 28 c8 b4 bd 15 2d de bd fa 8b ba 3a 72 55 e3 bd
       -0.08827239 -0.108484425 0.001423239 -0.11100282
000300 65 24 dd bd e9 86 6f bd 2f c6 13 be fc b0 0e bd
       -0.10797957 -0.05847827 -0.1443107 -0.034836754
000310 5c 0d 06 bd d5 6f 79 bc ee f3 82 b8 dd a4 07 3d
       -0.032727584 -0.015224417 -6.2443185e-05 0.03311621
000320 95 8a 80 bc b4 9e c9 bc b1 cb 9c 3c f7 f3 53 bc
       -0.015691081 -0.024611808 0.019140096 -0.012936584
000330 e2 b9 dc 3c be 8e 2a 3d ac 9f e1 3d bf a5 6a bd
       0.026944105 0.041640036 0.11016783 -0.057286974
000340 5e ec ac bc b5 f8 97 bd 92 9d 8d bd 7d 57 b1 bd
       -0.021108802 -0.07420484 -0.0691482 -0.08659265
000350 ce d6 bc bd b4 8a 04 bd fa 59 08 3c c4 10 b0 3c
       -0.09220658 -0.03235884 0.008322233 0.02149237
000360 59 30 8e bd 59 3f bc bd 64 e5 2b bd e8 a5 d9 3a
       -0.06942815 -0.0919177 -0.04196681 0.001660523
000370 84 1f 0e bd 16 1f 8b bd 72 26 56 bc be fc dc bb
       -0.034698024 -0.067930385 -0.0130706895 -0.0067439964
000380 e6 af e0 bd 40 8f aa bd 49 f9 44 bd 9d eb 0a bd
       -0.1097105 -0.08328104 -0.0480893 -0.033916105
000390 ad 63 aa 3b c7 1c c4 bd a3 2a 12 bd ef 58 52 bd
       0.0051998706 -0.09575801 -0.035685193 -0.051354345
0003a0 6c a5 9c 3c 39 82 8c bd 73 e5 9d bb a5 8b 92 bd
       0.019121848 -0.068607755 -0.0048186122 -0.07155541
0003b0 00 0f b4 bd a7 c3 8c bd f8 2d b4 bc aa 86 d6 bd
       -0.087919235 -0.06873255 -0.021994576 -0.10474904
0003c0 a5 6e 99 bc 36 e8 de bc 38 6c 55 bc e3 ba 72 bd
       -0.018729517 -0.027210336 -0.01302629 -0.05926026
0003d0 6d 70 eb bd a3 dd 7d bd d5 80 90 bd 8a 60 0d be
       -0.11496053 -0.061978947 -0.07055823 -0.13806358
0003e0 9c cf 2f bc bd 5b e9 bc 43 80 ec bd dd 91 a4 bd
       -0.01073065 -0.028486127 -0.115479015 -0.08035634
0003f0 b1 a0 76 ba 5e f3 57 bd 4a 76 63 bd 40 e2 dd bd
       -0.00094081 -0.052722327 -0.05553273 -0.108341694

enc_3.cnn_layers.1.weight f4 [32]
000000 84 eb 90 3f e3 7a a7 3f 5c 24 a5 3f c7 fd 53 3f
       1.1321874 1.3084377 1.2901721 0.8280911
000010 2e e6 60 3f d1 79 5e 3f 6e 16 62 3f ca 02 5d 3f
       0.87851226 0.8690463 0.88315475 0.8633238
000020 26 be 7b 3f 81 7f 76 3f 78 37 ac 3f e1 75 74 3f
       0.9833702 0.96288306 1.3454428 0.9549237
000030 8f a5 83 3f 0e 90 85 3f 95 a9 56 3f a7 65 31 3f
       1.02849 1.0434587 0.8385251 0.69295734
000040 60 c5 ab 3f 41 13 85 3f 11 ac 4f 3f 20 dc b2 3f
       1.3419609 1.0396501 0.8112193 1.3973427
000050 4c 8c 8a 3f 0f e2 93 3f 73 34 50 3f ca e9 04 3f
       1.0824065 1.1553363 0.8133003 0.51919234
000060 e5 9c 91 3f 64 d8 6b 3f 3c 95 81 3f f9 02 b3 3f
       1.1376005 0.9212706 1.0123668 1.3985282
000070 08 b1 48 3f 14 93 81 3f cc 55 76 3f c0 ad 71 3f
       0.7839513 1.012301 0.96224666 0.94405746

enc_3.cnn_layers.1.bias f4 [32]
000000 17 38 fb 3d 2d ed 6d be 25 7a 2d 3f 21 4a 81 be
       0.12266558 -0.23235007 0.677645 -0.25251868
000010 39 8d ba bd f1 d3 96 bd aa 45 be bd fa c9 31 be
       -0.09108967 -0.07364643 -0.09290631 -0.17362204
000020 8d 14 c9 3d 54 94 7f be 42 84 54 be 5c f3 ba be
       0.09818373 -0.24958926 -0.20753577 -0.36513793
000030 3f fa 91 bb 77 2a 77 be 55 45 42 be c4 2f dd be
       -0.0044548805 -0.24137293 -0.1897176 -0.43200505
000040 bc a1 9f bc f1 9f a6 bd 58 5f 04 be b6 1a 90 3e
       -0.0194863 -0.08135975 -0.12926996 0.2814538
000050 a8 4e 59 3d d5 59 48 3e 24 aa e0 bd f6 2d 39 3e
       0.053053528 0.19565518 -0.10969952 0.18083939
000060 b2 66 32 bd 86 be ba bd 60 3e 2a be c1 dc 44 3f
       -0.04355497 -0.09118371 -0.16625357 0.76899344
000070 fd 16 60 be c2 2a a0 b9 f7 f3 5d 3a 69 42 1b 3e
       -0.2188377 -0.00030549435 0.00084668346 0.15162052

enc_3.cnn_layers.1.running_mean f4 [32]
000000 52 08 eb bf 9a fd 61 c0 8f c9 37 c0 6b 8f af 3f
       -1.8361914 -3.5311036 -2.8716772 1.3715643
000010 5c f4 e6 bf 7f ac d8 3f c2 42 04 c0 b5 7c 07 40
       -1.8043323 1.6927642 -2.0665746 2.1169865
000020 17 bb 1c bf 75 83 e1 bf 08 fb 96 c0 a3 91 1d c0
       -0.61222976 -1.7618243 -4.7181435 -2.462014
000030 2f 50 7e bf 29 6a 0f c0 f2 92 63 3f 45 57 29 40
       -0.993411 -2.2408545 0.88896096 2.6459515
000040 8e 9a 0d c0 97 94 90 bf a6 41 89 bf ea 23 75 c0
       -2.2125583 -1.1295346 -1.0723159 -3.830317
000050 44 a1 1f c0 12 4f 67 c0 fa 8d 4e bf f6 46 3a 40
       -2.4942179 -3.614201 -0.8068539 2.910581
000060 42 72 51 40 36 11 1c c0 8b 50 dd bf e2 b7 f3 c0
       3.2725987 -2.4385505 -1.7290205 -7.6161966
000070 89 6e 36 c0 f3 33 8b 3f 3c 03 0c 40 64 84 0d c1
       -2.8504965 1.0875229 2.1876974 -8.844822

enc_3.cnn_layers.1.running_var f4 [32]
000000 3d 0b 9b 40 25 73 5f 41 06 d5 35 41 57 74 d7 40
       4.845122 13.965611 11.364508 6.7329516
000010 a7 3f dd 40 5c f1 31 40 74 14 a8 40 fe f1 7b 40
       6.91402 2.7803564 5.2524967 3.936645
000020 02 b6 cb 3f 2b 4c 06 41 3d bd 27 42 c2 a6 40 41
       1.5914919 8.393596 41.934803 12.040712
000030 c9 5e 34 40 cd a9 0e 41 6f 6a 5c 40 55 40 94 40
       2.8182852 8.916455 3.4439962 4.632853
000040 76 c7 07 41 8d 5a 11 40 7d a2 18 40 f1 b3 a4 41
       8.4861965 2.2711518 2.3849175 20.587862
000050 56 d0 ba 41 9c c6 9f 41 fa c6 b5 40 7c e5 9b 41
       23.351727 19.971977 5.680539 19.487053
000060 b7 53 1e 41 ef 0c 1e 41 da 6c 9a 40 5b 38 42 42
       9.895438 9.878158 4.8257875 48.555035
000070 c1 90 d5 40 71 36 fd 3f 1e 09 aa 40 4c 0e 7e 42
       6.67392 1.9782239 5.313613 63.51396
